LunarLander-project-main/LunarLander-project-main/dqn_lunarlander.pth (torch, 279256 bytes, 6 tensors)

backbone.0.weight f4 [256, 8]
00000000: 7865 c1bc 87ee fa3c 1516 a33d 2df9 63be
00000010: 1614 b33d bfb6 663e 4cb6 98bd 0988 843d
00000020: 5748 8fbd dd53 a13b ce39 10be ab1c 403e
00000030: 353f 09bd 2a09 30bf 9229 c5bb a5fd 4d3e
00000040: 81e9 b6be ed8f 6dbe 4da4 65be 9ac0 5ebd
00000050: 43c3 36bd 0ae5 00be 37bf 56be 8f4f c6bd
00000060: 38ae c03c f603 40be 9938 06be c949 1bbd
00000070: 9e83 143c 7519 c93e cf3a 333e 4202 18be
00000080: 0767 bebd f26b 8c3d 63c1 c9be c5c2 1b3e
00000090: ad15 973e 9b9c 8f3e 60c9 79bc 91e0 7abe
000000a0: 5b53 953e f446 1c3d f8be 5a3d 45de 26bd
000000b0: 7500 dc3e f197 0a3e dc4e efbe 2fae f8bd
000000c0: 9fda 473e 4e2a bebe 3418 713e d198 8abd
000000d0: 07dd 8dbc 499b 7f3c 0910 883e 81d1 663d
000000e0: 9cd4 f83d a7d2 df3d b95a a7bd f0a8 97be
000000f0: c25a 64be 2f3f 00be 8ab9 083e da21 f0bd
00000100: 06d4 8d3c 9c9c 233d 6a25 1d3e e0f0 bc3d
00000110: f998 8dbe 2f22 87be 4e25 09be 4f6d b33e
00000120: 33fe 5c3d d600 06bf 49cb 443e 3fdf 01be
00000130: 71a7 3cbd 10e3 d1bd 0831 9a3d bcbe 373e
00000140: e6d9 823d 4390 eb3d eefb 363e 37ed 22bc
00000150: e2ba 113e 456c 943e ee1b c93d 6a77 f4bd
00000160: 6ddb 053f 0efe f23d 9dd7 743e dfa9 013e
00000170: 0c84 b73d c6e0 5b3e 54a8 f73d b13b 813d
00000180: ff5c 3dbd 9ba2 ea3b 5c2e 85bd 5776 ce3d
00000190: 3928 3d3e 8824 d23e 21c0 b33e 2070 cabd
000001a0: 1493 ff39 c37f 38bd 4358 7e3e 69dc 3bbe
000001b0: d4b1 ce3d bd1f 96be dc09 04bd fdb0 833e
000001c0: 3f38 81bd c63d b43c c24e d8bd 3232 863d
000001d0: 196b 833e 263e a53e 2f19 3e3e df18 e03d
000001e0: a82c 0fbc a66e d53d 79fb ee3d 133e 29be
000001f0: 159f 8cbe 32a3 e23c aaed 0ebd db74 12be
00000200: 8e26 923e 2dea 2cbc ce8c 273e 1eeb 2abe
00000210: 28fc 883e 4f96 67be 6ba8 85be 0c02 21be
00000220: 7dd8 673e be08 783d eb5c f0bc 77f5 31be
00000230: b245 003d bb92 d3be 01be 55be 46db 473e
00000240: 99ef 42bd 855b f8bb 066f 3cbc a154 123d
00000250: d9f7 3f3e 7e0e dc3e be8b a03e 6f05 01be
00000260: 87a6 98be 2f45 7ebe b1c6 58be 7aec 8cbd
00000270: 2223 b8bd 0976 c33d 2f5f 1d3e 1750 063e
00000280: d5dc bfbd 040f d63d f9f8 ee3c 8a08 5cbe
00000290: 4514 a0bd 6717 b53e 94ed 5f3d 1cd3 24bd
000002a0: a9b1 91bd 2bab debc b170 a53d 3245 e63c
000002b0: a36d 053e 318c 083f 1699 843e a260 53bd
000002c0: 3892 11be e28a f63d 4875 fabd 7938 213e
000002d0: 42b0 84bd 0d8b debe 3978 c43d 6f21 9f3e
000002e0: 7032 303e 8640 07bf b289 df3d 879d 2abe
000002f0: b641 393d 5879 ad3e 675f 093e 557f 4c3d
00000300: 506f 8f3c 51f1 0ebc 61d6 513c cd55 9b3c
00000310: 2bb0 b3be 5727 c3be 01a6 483c e8d0 853e
00000320: 36f8 08be 9619 533d 343f 34be fea2 703e
00000330: 4e8b c6bd 3f92 17bf 8eac 443d 3209 093e
00000340: fbb8 c03e ea56 0cbe 9c12 563e 1db8 c3ba
00000350: 2861 b43d 3c83 73bd 46f1 643e 2a29 ce3d
00000360: dba0 dabb a1f8 c3bc 6051 1a3e cfb1 8fbe
00000370: 2670 c93d f12f b0be 84a1 24be 11ed ff3d
00000380: 06a1 37be 3d65 503d 25ad a03e 862d cbbd
00000390: 693a b6be 8dd4 66bc 687a fa3c 772a d0be
000003a0: ecec a33d 6197 5a3d 5ed8 323e 1ef5 7f3e
000003b0: 160b eabe 04b5 1c3e ab9a c8be 6f31 32bd
000003c0: be12 b73d 3006 00bd 2ea1 9b3e f0c5 3dbb
000003d0: cc90 c7be 4343 20be e1d4 bebc 5030 21be
000003e0: 8d01 bd3d 9e0b 9039 8e50 0fbe 119a 5dbe
000003f0: 2b01 4d3e 8ee2 0b3e 4eca 423e c641 54be
-0.023607954 0.030631317 0.07963196 -0.22263022 0.087440655 0.2253065 -0.07456645 0.06471259
-0.069962196 0.0049233274 -0.1408455 0.18760936 -0.033507545 -0.68763983 -0.0060169185 0.20116289
-0.35725024 -0.23199435 -0.22425957 -0.054382898 -0.04461981 -0.12587371 -0.2097138 -0.09683143
0.023520574 -0.18751511 -0.13107528 -0.037912164 0.009064583 0.39277235 0.17502902 -0.14844611
-0.09296995 0.068565264 -0.39405355 0.15211017 0.29508725 0.28049168 -0.015245765 -0.24499728
0.29165158 0.038153604 0.05340478 -0.040739316 0.429691 0.13534524 -0.46739852 -0.12142598
0.19516991 -0.3714165 0.23544389 -0.06767429 -0.017317308 0.015600988 0.26574734 0.056352142
0.12149927 0.109288506 -0.08171601 -0.29621077 -0.22300246 -0.12524103 0.13352028 -0.11725207
0.017313015 0.039944276 0.15346304 0.09225631 -0.2765577 -0.26393268 -0.13393137 0.35044333
0.05395336 -0.52345026 0.19218172 -0.12682818 -0.046058122 -0.10248387 0.07528883 0.17943853
0.06389217 0.11502125 0.17869541 -0.009944252 0.14231446 0.28988853 0.0981978 -0.11936839
0.5228794 0.11864863 0.23910375 0.12662457 0.08960733 0.21472463 0.12092653 0.06310213
-0.046231266 0.0071604974 -0.06502983 0.10081165 0.18472375 0.41043496 0.3510752 -0.098846674
0.00048746972 -0.045043718 0.24838357 -0.18345799 0.10092512 -0.2932109 -0.032235965 0.2572097
-0.06309556 0.022002112 -0.10561897 0.06552543 0.25667647 0.32273978 0.18564294 0.10942244
-0.008738674 0.10421495 0.11669058 -0.16527586 -0.2746512 0.027665708 -0.034894623 -0.1430239
0.2854504 -0.010553879 0.16362306 -0.16691253 0.2675488 -0.22615932 -0.26105055 -0.15723437
0.22641177 0.060555212 -0.029341182 -0.17378794 0.031316467 -0.41322884 -0.20873262 0.1951724
-0.04759178 -0.0075792694 -0.011501079 0.03572524 0.1874689 0.42979807 0.31356615 -0.12599729
-0.2981455 -0.24831079 -0.21169545 -0.06881042 -0.08991076 0.09543998 0.15368341 0.1311649
-0.09368292 0.10452083 0.029171454 -0.21487632 -0.07816366 0.35369417 0.05466993 -0.040240392
-0.07113964 -0.027181229 0.08078135 0.028109167 0.13030104 0.53338915 0.25898045 -0.051605828
-0.14215934 0.120382085 -0.12229401 0.15744199 -0.06478931 -0.43465462 0.09593243 0.31080195
0.1720674 -0.5283283 0.10914935 -0.16661654 0.045228682 0.3388164 0.134153 0.04992612
0.017509133 -0.0087245265 0.01280746 0.018961811 -0.35095343 -0.3811595 0.01224661 0.26135945
-0.13375935 0.051538073 -0.17602235 0.23499677 -0.09694539 -0.5920753 0.048016123 0.13382414
0.3764113 -0.1370503 0.20905536 -0.0014932189 0.088075936 -0.059451327 0.22357664 0.10066445
-0.0066720075 -0.023922266 0.15070105 -0.28065345 0.09835844 -0.34411576 -0.16077238 0.12496389
-0.1793252 0.0508778 0.313821 -0.09920792 -0.35591438 -0.014088762 0.030575946 -0.40657398
0.08004174 0.053367022 0.1746535 0.24995849 -0.45711583 0.15303427 -0.39180502 -0.043504175
0.08939122 -0.0312559 0.30396408 -0.0028957091 -0.3897766 -0.15650658 -0.023294868 -0.15741086
0.092288114 0.00027474476 -0.13995573 -0.21640803 0.20019977 0.13660643 0.19022486 -0.20728216

backbone.0.bias f4 [256]
00000000: d06d 883d a785 4f3c ecbe 563c 0e1a 553d
00000010: 5cc8 d1bb 76ec a13c a3dd 3f3d 0fef 8d3d
00000020: 6dfe 053d 22d6 d13c ed9f 7f3c d944 1b3d
00000030: c796 913d aa56 aa3d 40ea 5a3d b5e0 9d3d
00000040: 02c9 85bc 9d9e 5c3d 73d4 6a3c b02e 923c
00000050: e0cb ab3b 8db0 b0bb cd89 9bbd ce38 513d
00000060: c0ad 7f3c 2d8f f5bc ce08 793d f02b 343d
00000070: b904 a8bb 1cd8 75bc 088e c13c ade0 f13a
00000080: 546b db3d 4296 353d b671 2b3d b0d2 5c3d
00000090: 1c55 af3d 9e26 c23d 0154 503d 8701 073e
000000a0: 0cdd 6b3c 8eb0 26bd 33a7 953d 61fc ce3a
000000b0: 05cb c43b 7cd3 69bc d19d 20bd 8032 333d
000000c0: 0449 6ebd a29d d63d 87d0 173c 3587 5f3d
000000d0: a472 9b3c 7e29 563d 89de c8bd 5cde 273d
000000e0: 08d3 593c 3f2a 7d3d 8d04 3ebb 6278 e2bc
000000f0: f107 c93d 38d3 303d fb03 f5bc f805 15bc
00000100: 4adc 323d ad93 ad3c 3b83 4ebd b31d ea3d
00000110: 2225 dc3d 94ac 7c3d 96e9 bb3b 6c39 003d
00000120: 9abd 553d 6bfd 733c 6172 083e 9e8f 8b3d
00000130: 63c9 c83c 75c6 473d dc58 bdbd be5a 8a3c
00000140: 50a4 613c 784c 173d 97ce 053c 6c07 303d
00000150: 1cf2 35bd 10e7 2f3d b44b ab3d aa6d b33c
00000160: cff6 3ebc 6613 793d c055 b33d 7ffa 29bd
00000170: e565 e93c b0cb 783d f6c1 ac3d 6521 803c
00000180: 98d0 833b f1d4 df3c cb32 333d 8907 c73d
00000190: d80d 7f3d da26 a43c 3567 8c3c 2cab a6bd
000001a0: d1b9 c1bd 2f78 14bd 4f53 0c3d 39c2 ffbc
000001b0: 583e 183d 7075 ca3d 49e8 9e3d d918 6cbd
000001c0: 6937 1bbc f443 b53c 649b 7c3d eadc 863b
000001d0: 2e91 363c 4736 68bd 7174 883d 5b34 813d
000001e0: fa88 fbbd 315f 9b3d cea8 5e3b 7f1c 83bd
000001f0: 9f18 213d 67a0 b43d a2cc f83c 6d75 45bd
00000200: ef85 333d 30e9 8ebd f6d5 153e e417 253b
00000210: 2169 903d bd34 9fbd 86ee 023d 9c73 b2bd
00000220: 6795 7b3d 1bb8 cabc 2e5a 123d 9011 a73c
00000230: 2585 aa3d 0ce5 ad3d 49ee dd3d d987 ee3b
00000240: ea2e 5a3c 020b f638 448d a0bc 8acb ea3a
00000250: a0d9 2bbc 2af3 0b3c 1e2f 65bb 38f1 fc3a
00000260: 4c73 ec3c 7707 4fbd e380 d9bc 1f92 803d
00000270: 3a3a 973c ef8f b5bb 2395 2f3d b73d 89bc
00000280: 3d51 f2b9 44a9 2c3d 0e07 3b3d 536c 0b3d
00000290: ee41 7e3b 3325 8c3d 215d 0dbd d14e f1bc
000002a0: c04e c73d cc13 333c 11b6 af3d ede1 8d3d
000002b0: a070 b23a 9b65 fb3c da8c 463d 6379 ebba
000002c0: 4c25 333d 6448 913c 38ec 183d e391 24bd
000002d0: 1c85 ab3c d327 d83b bc80 933a 0689 2f3c
000002e0: 5eac 073d 5c97 053e a1b9 243d 568a 3c3d
000002f0: 4156 a93d ce93 b93c 26c3 a43d 7908 f0bc
00000300: 43f9 cfbb 61fd 343d cabe 833d a7fe 073d
00000310: a297 053c 1b6e 063e 3f76 ab3c 8740 893d
00000320: ebe0 a83c 9f23 42bc 7eb0 b03c 759f 0f3e
00000330: 5809 0ebd 25fb 0a3d ed37 663e 0cf5 73bb
00000340: c7ae c33d b8e5 203d 83b0 e93a bd3e 08bd
00000350: bd25 173c 6773 b53c c26f d63b 14c2 ab3d
00000360: 5949 6a3d 6535 353d d169 b03d 72bb 033c
00000370: acdb 4cbd 6592 d53d aa2f 3fbd ef7a 7c3d
00000380: e867 18bd a8d3 b93d 3329 28bc f719 77bc
00000390: 09a8 663d 9f0a ab3d 569a 183d ac46 4b3d
000003a0: 80a4 373c b753 f83b 229a ddbb 6b98 3bbd
000003b0: f1fe a33d 0026 aabb 4ee9 003d 88cd bdbc
000003c0: d264 d53d 69ae 1e3d de58 e23c 4026 2c3d
000003d0: b80c ef3d dee3 5f3d 52c7 81ba 3b87 a03d
000003e0: 8e1f 2e3c 5296 ddbb f9a2 993c b047 abbc
000003f0: b69b 543c d0c0 05be 35fd 263d 574a 6a3c
0.0666157 0.012666143 0.013107043 0.0520268 -0.0064020585 0.019766074 0.04684223 0.069303624
0.032713342 0.025614802 0.015602094 0.037907455 0.071088366 0.08317311 0.053446054 0.07708875
-0.0163312 0.053862203 0.014332878 0.017844528 0.0052428097 -0.0053921402 -0.07594643 0.051079564
0.01560539 -0.029975498 0.060799412 0.043987215 -0.005127516 -0.015005138 0.023627296 0.00184538
0.107138306 0.04433275 0.04185649 0.053911865 0.08561155 0.09480022 0.050861362 0.13184176
0.014395963 -0.04069572 0.07307281 0.0015791768 0.006005647 -0.014271613 -0.039213005 0.043749332
-0.058175102 0.10479285 0.009266025 0.054572303 0.018975563 0.052285664 -0.0980807 0.040983543
0.013294943 0.061807867 -0.0028994412 -0.027645294 0.09815968 0.043170184 -0.029909125 -0.009095661
0.043667115 0.021188581 -0.05041812 0.11431446 0.1074927 0.06168802 0.0057346327 0.03130476
0.05218277 0.0148919625 0.13324882 0.06814502 0.024510091 0.048773248 -0.09245464 0.016888972
0.013772085 0.03693816 0.008166931 0.042975828 -0.044420347 0.042944968 0.083640486 0.021902878
-0.011655523 0.060809515 0.0875659 -0.041498657 0.02849097 0.060741127 0.084354326 0.015640924
0.004022669 0.027323218 0.04374961 0.09718234 0.06226906 0.020038057 0.017139057 -0.08138117
-0.0945927 -0.03624743 0.034259137 -0.031220542 0.03716883 0.09885681 0.07759149 -0.057640884
-0.00947366 0.02212713 0.06167163 0.0041156905 0.011143012 -0.056692388 0.066628344 0.06308814
-0.122819856 0.07586516 0.0033975127 -0.064019196 0.03933012 0.08819657 0.030371014 -0.04820769
0.0438289 -0.06978071 0.14632401 0.0025191242 0.07051302 -0.07773731 0.031965755 -0.08713457
0.061421778 -0.024745991 0.035730533 0.020394117 0.083261766 0.08490953 0.10836465 0.007279378
0.013316849 0.000117322445 -0.01959861 0.0017913443 -0.010488898 0.008541862 -0.003497071 0.0019297963
0.028863572 -0.05054423 -0.026550716 0.062778704 0.018460382 -0.00554084 0.042866837 -0.01675306
-0.00046218364 0.04215361 0.045661025 0.034038853 0.0038796621 0.06843033 -0.034512643 -0.029456528
0.09731817 0.010930013 0.08579648 0.069278575 0.0013613887 0.030688098 0.04847417 -0.0017965253
0.04373674 0.017734714 0.03733465 -0.04017819 0.020937495 0.0065965443 0.0011253576 0.010713821
0.033123367 0.1304602 0.040216092 0.046030365 0.08268405 0.022653487 0.08045034 -0.029300915
-0.006346853 0.044186953 0.064328745 0.03320184 0.008153828 0.1312794 0.020930408 0.06701761
0.020615062 -0.011849313 0.021568533 0.14025672 -0.03467688 0.033930916 0.22482271 -0.0037224917
0.095548205 0.039281577 0.0017829094 -0.033262957 0.009225306 0.022149755 0.0065440843 0.08386627
0.057198856 0.044240374 0.08613933 0.008040296 -0.050014183 0.10428313 -0.046676315 0.061640676
-0.037208468 0.09073573 -0.010263729 -0.015081874 0.056312595 0.08351635 0.03725656 0.049627945
0.011208653 0.007578339 -0.006762759 -0.045799654 0.080076106 -0.0051925182 0.031472497 -0.023169294
0.104196206 0.03874055 0.027630266 0.042028666 0.11672348 0.05466067 -0.0009901321 0.07838293
0.01062764 -0.0067623043 0.01875447 -0.020908207 0.0129765775 -0.13061833 0.04076882 0.014299951

backbone.2.weight f4 [256, 256]
00000000: 1bb1 b6bd 0129 123e 562e f63e 85aa 43bd
00000010: 3f15 213e 1a25 3abd 9c6f 013e 5ede 2dbd
00000020: 555d 26bd de93 a83e d09e c53d ec1e 4c3d
00000030: 092c e03d cc48 3fbc 00c2 3f3e a09b 383e
00000040: 0e3c 8abe 8303 37be c493 493e 3b02 203e
00000050: ea41 223d dedb 763e 2848 993d 5746 8c3e
00000060: f0e6 e83d c997 223e 7ade 963e d84d 4bbd
00000070: 040b e3bc aaa1 3ebe 40a1 cd3c 1f3f 93bd
00000080: 3408 f53d 1498 673e c59e 8d3d 7aed acbc
00000090: 7de2 be3c 463f 643d 9b89 803d 6057 793e
000000a0: 71cc 0a3f 3b19 423e d140 853e 3594 1e3e
000000b0: 7e70 833e c3e1 983d 0dcd 9f3d 53de 103e
000000c0: 3a05 c33d 1335 69bc 2886 9cbd 9848 013e
000000d0: 9584 debe 8423 14be 2582 66be b8c9 553d
000000e0: 326e 473e 43d2 653e b8e4 25be fc58 993e
000000f0: f5ef 8a3d 37d3 7abc bed1 a6bd 44af 0e3f
00000100: 6109 293e b757 50be 310e 0fbd 9218 60bd
00000110: a57d 103e 3233 153d c027 133e d263 37bd
00000120: 1059 953e 5fc2 15bf 2870 df3c 6b82 433e
00000130: 1927 de3b 0104 f53c ee5d 8e3e 5a08 28be
00000140: e18a a73e 2cb1 c6bd 74b4 63be fcfd d7bb
00000150: 56c6 b53e 1c66 8c3d 9260 24bd 42b2 b6be
00000160: f419 cabd af73 b8bd cfa3 4fbd 6b56 1c3e
00000170: 223f c2bc a236 1abd 9872 933e 24ae 473e
00000180: 5960 60be 66b7 d1bb b2fd babe c416 893e
00000190: 059b f83c ff14 253b eda9 093e 9cc4 15be
000001a0: aa47 983e 08e8 a03e 99b3 e43d 6581 90be
000001b0: 6cd9 2c3e bf59 55bc 9a9a 803d b7ef f03c
000001c0: fe47 133e c52a 833e 26cd 1e3d 1dd0 1cbe
000001d0: 52ec 78be 05c8 8b3e c584 ab3e 25be 753e
000001e0: b485 aa3e 971a 2e3e 84bf 54bd 0a1f b63e
000001f0: 5f5a 9abd a610 02be 6152 603e 5eff b23c
00000200: c388 3f3e 97d7 8a3e 5e0f 69be df27 9cbd
00000210: 5287 653c 04da 8e3e 4c41 f5be d69e c33d
00000220: 0871 883e a826 d43c 8093 623e 40c8 713e
00000230: 14d7 083e afaf bd3d bf7a bf3d ff98 063e
00000240: b534 1abe 2a05 663e 6622 5a3e bc7f 81bd
00000250: 6264 323e b24b 103e 0f8b a33d 3791 2c3e
00000260: fa55 6bbd 5297 2cbe e469 5f3d 3d9d b33e
00000270: 5f3b 053e 1d98 b73d 44b9 703e 000e b53e
00000280: 5322 a53d d35d 273e c057 363e de57 413e
00000290: af3d e23d 114a 443e 4d98 163e 3cba 83be
000002a0: 544a 813c 3d24 06bd 547b 3a3e 7717 dbbe
000002b0: a3f9 a93e 2959 4f3e 4061 513d a232 183e
000002c0: 0164 01bf 1850 66bd 5e73 d33d 8ea7 933d
000002d0: 8436 94bc 73d8 d2bd 2e53 24be 29b9 a73d
000002e0: abc9 633d 86d7 553d ba13 e53d 93d6 723d
000002f0: 2ceb 033e 89d2 553e 716b 813b 85e6 55bc
00000300: 9344 61be b35b 0f3e dece d7bb 9741 9b3c
00000310: bf34 9dbd 95ed a23e 7d3d df3d 901f adbb
00000320: 9bb2 0ebf ea29 783e e192 34be 39cd 033e
00000330: 5737 57bd 6fb7 2c3e d7e4 8cbc 0c5a 283e
00000340: 7d67 50bd d72c 373e 31ec a4bd 5c22 1d3e
00000350: 96ed 01bf 3f55 83bd b20f 033d 02d2 093e
00000360: 3a65 703d bd12 883e 0f40 0e3e 1cca 33bd
00000370: 384a 6fbe a50d bd3d 854f c7be 67ed 9c3e
00000380: 0b78 c53d e431 d0bd bb03 023e d1bc 843d
00000390: c775 5f3c dbf1 dfbb 95bc 623e 3e2d b4bd
000003a0: 43ee 113c bd16 03be 2525 b33d 9348 713e
000003b0: d344 823d 3279 ac3c 1da1 f03d 1bab 503e
000003c0: 01fd ac3d e721 c93e 8b95 163e a178 b83e
000003d0: 51dc 37be 1788 eabe d76a 25be 62fa d03d
000003e0: 71a9 683e 4baa 843e ecc0 9f3d 38cc ad3e
000003f0: 8621 8ebd 163f a73e 0371 5b3e f7f8 6f3e
-0.08920499 0.14273454 0.48082227 -0.047770042 0.15730761 -0.04544554 0.12640232 -0.042448394
-0.040616352 0.32925314 0.09649432 0.049834177 0.10945899 -0.011675071 0.18726349 0.18028116
-0.26998943 -0.17872433 0.19685274 0.15625851 0.03961364 0.2410731 0.07484466 0.27397415
0.11372173 0.15878214 0.2946661 -0.049634784 -0.027715214 -0.18616357 0.025101304 -0.07189774
0.11964455 0.22616607 0.069150485 -0.021109331 0.023301357 0.055724405 0.06276246 0.24349737
0.542182 0.18954937 0.26026013 0.15486224 0.25671762 0.07464936 0.07802782 0.1414731
0.09522481 -0.014233845 -0.07642776 0.12625349 -0.43460527 -0.14466673 -0.22510584 0.052194327
0.1947563 0.2244349 -0.1620053 0.29950702 0.067840494 -0.015309147 -0.08145474 0.55736184
0.16507484 -0.2034596 -0.034925643 -0.054710932 0.1411043 0.036425777 0.14370632 -0.04477293
0.29169512 -0.5849971 0.02727516 0.1909272 0.006779563 0.029909136 0.27806038 -0.16409436
0.32723144 -0.097017616 -0.22236806 -0.0065915566 0.3550288 0.06855413 -0.04013116 -0.35682875
-0.098682314 -0.0900644 -0.05069333 0.15267341 -0.023711745 -0.03764976 0.28798366 0.19500023
-0.21911754 -0.0064000366 -0.3652168 0.2677518 0.030347357 0.0025189517 0.13443728 -0.14625782
0.29742175 0.31427026 0.11167068 -0.2822372 0.16879815 -0.013021885 0.06279488 0.02941118
0.14382932 0.25618568 0.038769864 -0.15313764 -0.24308899 0.2730104 0.33499733 0.23998316
0.33305132 0.1700233 -0.051940456 0.35570556 -0.07536768 -0.12701663 0.21906425 0.021850284
0.18704514 0.27117607 -0.22759768 -0.07624792 0.014009314 0.27900708 -0.4790138 0.0955178
0.26648736 0.025897339 0.2212658 0.23611546 0.13363296 0.092620246 0.09349584 0.13144301
-0.15059169 0.22462907 0.21302184 -0.063231915 0.17421106 0.14091375 0.07985508 0.1685227
-0.05745504 -0.16854599 0.054544345 0.350809 0.1301093 0.0896456 0.23508173 0.35362244
0.080631875 0.16344385 0.17806911 0.18881175 0.110469215 0.19168879 0.14706536 -0.25728023
0.015782513 -0.032749403 0.18211108 -0.4279134 0.3319827 0.20248856 0.051118135 0.14863065
-0.5054322 -0.056228727 0.10324739 0.07209693 -0.018092401 -0.10295191 -0.16047356 0.08189613
0.055612247 0.052207492 0.11185403 0.059286665 0.1288268 0.20881094 0.0039495756 -0.013055448
-0.21998815 0.13999824 -0.00658594 0.018952174 -0.07676076 0.31821886 0.109004 -0.0052833036
-0.5574128 0.24234739 -0.17634155 0.12871255 -0.05254301 0.1686685 -0.017198963 0.164406
-0.050879944 0.17888199 -0.080528624 0.15345138 -0.5075315 -0.06412744 0.03199739 0.13459018
0.058690287 0.26576796 0.13891624 -0.04389392 -0.23368156 0.09231118 -0.38927856 0.30649874
0.09642037 -0.10165766 0.12696736 0.06481326 0.01363892 -0.0068342513 0.22142251 -0.08797692
0.008906904 -0.12801643 0.08747319 0.23562841 0.063607834 0.021053884 0.1174948 0.20377772
0.08446694 0.39283678 0.14705484 0.36029533 -0.17955138 -0.45806953 -0.16154037 0.10204007
0.22720887 0.25911173 0.07800469 0.3394487 -0.06939988 0.32665318 0.2142983 0.23434816

backbone.2.bias f4 [256]
00000000: f7bc 7b3c 3566 983d d5cd 0f3c ec76 093e
00000010: 1c6a a1bc b7fa 86bc 501a de3d 3928 293e
00000020: 1a79 573c 8a0e 9bbc 8422 223e 672a 98bd
00000030: ffa0 013e 7ca5 ccbc 1da8 613d 90e8 903d
00000040: d874 3e3d 1a9c a03b f091 5abc 7872 b0bc
00000050: baa7 63be cfa1 15be 6b24 04be 13f8 023e
00000060: eaef d73a 1c3d 1c3e 8c4f 243d 0d16 ecbd
00000070: e19d 1ebc fa7b 6dbc 32e6 053e 12ed d43d
00000080: b0e0 3f3d 4335 0d3d 8dbf 633b 25f2 813d
00000090: d6c4 01bd c50d d7bd c41c 07bd ce04 68bd
000000a0: bc46 78ba daaa e4bc e95c e93d 6a99 ffbc
000000b0: 246a 0b3e 2f13 f63d 1f6e 08be 8ac1 4ebd
000000c0: 6d20 0cbc 38b7 6ebc 494b ccbb 746b f13d
000000d0: 7c3a 20be 1d6b 493e a8b7 ffbd 9310 c5bc
000000e0: 537d 293b aed4 b3bc 28ae de3c 02a5 47bc
000000f0: 6525 df3d 40f4 9ebc 754f 553d f2cf e33c
00000100: fdf8 b33d 714b 61bc b83e 85bc 8c0b 38bd
00000110: e44c d83d a0c4 803c 0038 13bd b4ef d0bd
00000120: 0759 a6bc 4070 b13d bb48 b83d f178 013e
00000130: b4f6 293d e1f8 f33d c37c cb3d 615c a5bd
00000140: b729 07bd 26dd ca3d d94f 29bc 7740 79bd
00000150: 5164 553c 8db8 f1bc 73f6 ee3d 2fa2 5fbc
00000160: 917b 03bd 1fff 5abc 5b6e 543d 834c 523c
00000170: 0184 eb3c 353d c73d 54fd 263d 1bb7 513d
00000180: 34e3 4d3c 3029 853d 9855 cbbc e387 b53c
00000190: c11c abbd 438a 88bc 5e0f 853d 2004 133e
000001a0: 76ad 70bb 5d98 353d 9b0f c53d 2ca4 e03b
000001b0: 9981 a1bc 7403 f3bc 1018 29be ea3d 4a3c
000001c0: aa60 bbbc 5e9f 70bc 4dc8 c4bb 4da1 043e
000001d0: 0145 a03d d98b 3ebc 2b17 163d 0cf8 05bd
000001e0: c899 9fbd 9cbe 69bd 96c0 82bc e622 b53d
000001f0: 742f 9cbd b523 32bc d35c cb3c fa16 083e
00000200: 9948 c33d 7274 bf39 fe50 bc3d 33b9 60bb
00000210: 784d 1a3d d5e1 193e 16bb 3ebc 3dbf 433d
00000220: 20a3 3c3d e003 c13d 74a5 563e 970f 693d
00000230: 7a18 a13c a107 ef3c 5c96 103e 3c2e f4bd
00000240: 9a34 afbb 5d48 84bb 6ee1 c03c 84ab 3fbc
00000250: 6f1d 0a3e b4a4 253b c0de 53bc 6dd4 eb3d
00000260: 5bcd 23bd c4c8 fe3c f0c9 45be 8dba 0bbc
00000270: 5c09 a33c 3c94 05be 0edd 403d 0dbb 0abc
00000280: 407a 913c 0d85 c43d 0dbf ba3c 6cd1 0b3d
00000290: c7d0 af3c a0b2 233c 8f5d 8ebc 70d1 ef3d
000002a0: 28d2 9a3d 4d60 bd3d 84a8 e73d fea2 a9bc
000002b0: 4167 cf3d 3804 793d bb74 eebc 0929 af3c
000002c0: 24e2 2f3e 3cae 1c3d 632a 84bc cabe f53d
000002d0: a7fd 833c 7bf3 0cbe 8c1b 8dbc 7fb8 84bc
000002e0: 8ca4 32bc 6f8a 163e 7cb6 44bc f5de dc3d
000002f0: 87b2 ac3d 3965 9839 d9d0 e63d 0d20 9e3d
00000300: 92b9 603a eb18 0c3e 4029 c43d 8f41 713d
00000310: 3192 573d e87b 0e3e 3947 923d 465e 33bd
00000320: 1085 f9bc 22a5 4aba 22ae b3bd b3d1 b9bd
00000330: 07fd e03d 4e73 dd3d 787a d33c 5904 edbd
00000340: a1ef 023d a416 0b3d 510a dc3d 53e1 6bbc
00000350: ae33 e43d 5c7e f63d b6fc 02bd 31d2 863d
00000360: 4d30 1a3b 01c6 49bc 0fe1 743d ab76 2d3d
00000370: fa69 883d 2597 963c 4d15 42bc 093d 9ebd
00000380: f2a2 903d 1ca5 40bc 7b72 c13d 863c 933d
00000390: 4d72 8f3d f1c9 8fbb 70ef bcbc 9184 923e
000003a0: 2cec c13b 5053 e53d 6cc4 6c3b 308e bd3d
000003b0: cdd8 793e 199c bb3c 14e0 363d eb69 fbbb
000003c0: cf6a d9bc f444 37bd 3e8d ac3d 636b 183b
000003d0: 2975 ccbc 5c2d 13bc 94b5 b13d d2ab 093e
000003e0: 7dce bf3d 3ada bb3d c9cb 093e 997c da3d
000003f0: f2ec dc3d c458 2bbc cd5e d43d a157 4e3d
0.015364877 0.074413694 0.0087771015 0.13424271 -0.019703917 -0.016476972 0.108448625 0.1651925
0.013151431 -0.018927831 0.15833479 -0.074299626 0.12659071 -0.024981253 0.055091966 0.07075608
0.04649815 0.0049014213 -0.013340458 -0.021538958 -0.22231951 -0.14612506 -0.12904517 0.12789945
0.0016474698 0.15257686 0.040114924 -0.11527643 -0.009681196 -0.01449489 0.13076094 0.1039678
0.046845138 0.034474622 0.0034751624 0.063450135 -0.031681858 -0.10500673 -0.032986417 -0.056645207
-0.00094709895 -0.0279135 0.11394674 -0.031201083 0.13614708 0.12015378 -0.13323258 -0.050477542
-0.008552653 -0.01457005 -0.0062345606 0.11788073 -0.1564731 0.19669767 -0.124862015 -0.024055755
0.0025862053 -0.021952 0.027182654 -0.012185337 0.10895804 -0.019403577 0.05207773 0.027809117
0.08787725 -0.013750897 -0.016265258 -0.044932887 0.10561541 0.015718758 -0.035942078 -0.1020197
-0.020306123 0.08663988 0.08998247 0.12643792 0.04149504 0.11912704 0.09935906 -0.080742605
-0.032998767 0.09905462 -0.010333979 -0.060852494 0.013024406 -0.029506946 0.116681 -0.013649507
-0.032100264 -0.01336649 0.051863056 0.012835625 0.028749468 0.09728471 0.040768936 0.051200014
0.0125663765 0.065019965 -0.024821088 0.022159522 -0.08355094 -0.01666749 0.06497072 0.14357042
-0.0036724485 0.044334758 0.09622117 0.0068555083 -0.019715117 -0.029664733 -0.16513085 0.012343863
-0.022873241 -0.014686434 -0.006005323 0.12952156 0.078256615 -0.011630022 0.03664319 -0.03270726
-0.07793003 -0.057066545 -0.015960973 0.08844547 -0.076262385 -0.010872771 0.024824535 0.13290015
0.09535331 0.00036517117 0.091951355 -0.0034290075 0.037671536 0.15027554 -0.011641284 0.0477898
0.046054006 0.09424567 0.20961553 0.056899633 0.019664992 0.029178442 0.14119858 -0.11922881
-0.0053468468 -0.0040369467 0.023544993 -0.011698607 0.1348779 0.0025275173 -0.012931526 0.115151264
-0.039990764 0.031101592 -0.19315314 -0.008528364 0.019901924 -0.13044828 0.047085814 -0.008467448
0.017758489 0.0959569 0.022796178 0.034135267 0.021461857 0.009991318 -0.017378597 0.11709869
0.075596154 0.092468835 0.11311439 -0.020707604 0.10127116 0.06079504 -0.029108396 0.021381872
0.1717611 0.0382521 -0.016133493 0.11999281 0.016112162 -0.13764755 -0.01722505 -0.016201256
-0.010903489 0.14701246 -0.012006398 0.10784713 0.08432489 0.00029067116 0.11270303 0.07720957
0.0008572574 0.1368138 0.0957818 0.058900412 0.052629653 0.13914454 0.07142491 -0.043791078
-0.030458957 -0.0007730295 -0.087734476 -0.090732 0.10985761 0.10813008 0.025815234 -0.11573095
0.03196681 0.03395714 0.10744155 -0.014396983 0.111426696 0.1203582 -0.031979285 0.065830596
0.0023527325 -0.012315274 0.059784945 0.0423495 0.066608384 0.018382618 -0.011845899 -0.07726485
0.07062329 -0.011758115 0.094456635 0.07189278 0.07004223 -0.004388087 -0.023063391 0.28616765
0.0059180465 0.11197531 0.0036127819 0.09255636 0.24399109 0.022901582 0.04464729 -0.0076725385
-0.026540188 -0.044743493 0.08425377 0.0023257367 -0.02495821 -0.0089829825 0.086772114 0.1344445
0.093655564 0.09172483 0.13456644 0.10668296 0.10787381 -0.010458175 0.10369644 0.05037654

head.weight f4 [4, 256]
00000000: 0b89 46be 33b3 b5be c43d 70be 2abf a53e
00000010: 3238 84be b1bc 953d 7616 4d3e 7c87 8b3e
00000020: cbe2 6dbe 3b8d 303e 6f54 94be 110a d2bc
00000030: 78a5 7e3e 653f 683b 09bd 37be 5cb0 a73e
00000040: eddb d03e 317b cb3e 84f0 37bd 4110 31be
00000050: e6ee 333d 69ce 8abd a677 fabe dae2 17be
00000060: 40a4 66be 6400 833c eeff a2be 9a5f 56be
00000070: 73dc 4a3d 1530 ffbc 017c 953d 91f2 df3e
00000080: 1419 41be 5fb7 9bbe f3ed 93be 8757 5ebe
00000090: 2839 753d e183 bbbc bdaa b23e 04ec dabd
000000a0: 5239 88be 2deb 1b3e 0d59 413d 3372 68be
000000b0: d39b a7be aa99 093f 2de1 96bd 3327 1cbd
000000c0: a832 ce3c 35b5 b6bc ba4b ab3e 99ab de3d
000000d0: 9b0a eebd 94e5 3ebd dc59 2cbe 3f8d 48bc
000000e0: 4fb1 87be 3a5b 153b a737 01be 306d 1fbe
000000f0: 16ba 31be 9c1e a5bd 0025 05be eb88 9e3e
00000100: 77fa c43e 65ac 823c c09d 5e3d c027 f7bd
00000110: 6fae 9a3e 0757 f1bc 13c1 29be 6f87 22bd
00000120: 5a51 a1bc 00ad c63e efe8 173e 3b8b cdbe
00000130: ba3c c23e f164 7b3e 8d40 3a3e eee9 b3bd
00000140: 9e9a 83be ddab 5ebe 2995 59bd 6190 0c3e
00000150: 2305 1c3d ff88 92bd 5996 713e 60af 913d
00000160: 0c4b c63d c244 4ebe c25f b93e 1554 49be
00000170: cd32 8abe a7c7 973e 651c 5ebe 99ab 2e3d
00000180: 539d 63be 94db 61be f749 93bc 22ef a4be
00000190: 50dd 02be 26e5 5c3e fee4 7f3e 434d 02be
000001a0: 9567 17be 1621 573d 9ddb b43e 6bf2 0dbe
000001b0: 39fb 743d aa16 453d 3be2 3dbe 5a11 7fbe
000001c0: bd96 96bd c6f4 bd3d b809 99bd e78e 833e
000001d0: 7394 cdbe 9cef dabc f838 a8be d085 bdbe
000001e0: 4f31 0e3e b5e9 85be cde3 af3d 3496 86be
000001f0: 4ed9 96be 39d4 40bc e0ce 14be 3d0a 5e3e
00000200: 438d efbe f70b e23d 44c8 733e 42bc 35be
00000210: 5e45 923e f2d2 8ebe adfc f0bc ab36 c4be
00000220: 8b97 85be b10a a53e f5b3 cebd 274d cabe
00000230: 6e28 a03a dd9f 99be ef78 823e 031d 2dbe
00000240: cac8 b6bd 945a b13c f9ca b0be ae4b 083e
00000250: af92 a83e 7d4e 4fbe 1d79 0bbe 8b41 783e
00000260: dcbe 52bd d358 94be 6449 e1bd 09a5 0dbd
00000270: 2ebb 3fbe 04d8 95be 2c8d 7abe 301c cebd
00000280: 2c45 dcbd 17a8 2bbe 6c98 7dbe 5863 61bc
00000290: 1519 d53e e502 13be abc7 9cbb c089 223e
000002a0: 9431 ba3e 7403 a93e a716 46bd 4bc2 c93d
000002b0: bbfd 6fbe d050 063e 9f92 343c c1c2 90be
000002c0: 829e 60be 9cf9 77be ca3d 2fbe 2e53 e1bd
000002d0: 1484 97be 5ead 1dbe 8f2a 60be d643 14be
000002e0: bffe 5abd eb91 953e 4f0c c5bd e8e6 ba3e
000002f0: 7f5b 023f 8de3 65be daf5 32be 0a47 b5bd
00000300: ae17 8ebd ffc7 6f3e 26a6 b9be 2f21 d73d
00000310: 811d 70be 5e65 a53e 8a51 d13e dd17 a4bd
00000320: 680c e7bd 7fda 8cbe f567 26be f824 153e
00000330: b095 e13e 8966 89be 174f bfbe a474 34be
00000340: a169 9dbe aead 123e c5a1 bc3e e6fd bc3d
00000350: 9f42 743e a552 47be ffa8 01be 1d68 c8be
00000360: 5790 8abe bdde f63a 08e3 a3be 05e2 c83e
00000370: ea81 92be bbc6 51be e23f 90bd 14d9 b3be
00000380: 1da7 4ebe 2791 153e 0cc3 f73e e432 893e
00000390: 982d c2be 47ea 443c 8301 a53b 385f cc3d
000003a0: 659a c13e e3b5 733e 088a 923e d127 ca3e
000003b0: bce8 70be 6817 25be c524 9bbe 5614 9f3d
000003c0: 2cf6 4cbe 3da9 76be dca9 ab3e add6 c93e
000003d0: 7c0d bebd de41 29bd a3d4 373e 5827 b6be
000003e0: c8d1 c23e c408 91be dee6 08be 80f2 b73e
000003f0: 6ba8 763e d6f6 8e3d ecec 773e 008b 91be
-0.19388215 -0.3548828 -0.23461062 0.3237241 -0.25824124 0.07311381 0.200281 0.27251804
-0.23231046 0.17241375 -0.28970668 -0.025639566 0.24867809 0.0035438177 -0.17943205 0.3275174
0.4079279 0.39742425 -0.044907108 -0.17291357 0.043929003 -0.06777651 -0.4891941 -0.14832631
-0.22523594 0.015991397 -0.31835884 -0.20934907 0.049526643 -0.031150857 0.072990425 0.4373975
-0.18857223 -0.3041334 -0.28892478 -0.21713077 0.05986896 -0.022890033 0.34895888 -0.10689548
-0.26606232 0.15226431 0.047204066 -0.22699814 -0.32736072 0.537501 -0.073671676 -0.03812332
0.02517064 -0.022303203 0.33456212 0.108725734 -0.116231166 -0.04660566 -0.16831154 -0.012240707
-0.26502463 0.002278997 -0.12618886 -0.15568995 -0.17356142 -0.08062479 -0.13002396 0.30963835
0.3847234 0.015951345 0.05434966 -0.120681286 0.30211207 -0.029460443 -0.16577558 -0.03967994
-0.019692112 0.38803864 0.14834951 -0.40145287 0.37936956 0.24550225 0.18188687 -0.08784853
-0.257039 -0.21745248 -0.053120766 0.13726951 0.038090836 -0.07155036 0.2359251 0.07113528
0.09682283 -0.20143417 0.3620587 -0.19660981 -0.26991883 0.2964451 -0.21690519 0.042644117
-0.22227983 -0.22056419 -0.017979605 -0.32213694 -0.12779737 0.21571788 0.24989697 -0.12724786
-0.14785607 0.052521788 0.35323802 -0.13862006 0.059809897 0.048117317 -0.18543331 -0.24908963
-0.0735297 0.092752025 -0.07472557 0.25694963 -0.4015232 -0.026725583 -0.32855964 -0.37016153
0.13885997 -0.26154867 0.085883714 -0.2628647 -0.29462665 -0.011769348 -0.14532042 0.21683593
-0.46787462 0.11037438 0.23806864 -0.17747596 0.28568548 -0.27895314 -0.02941736 -0.38322958
-0.2609218 0.3223472 -0.10092918 -0.39511988 0.001221908 -0.30004779 0.2548289 -0.16905598
-0.08925016 0.021649636 -0.34529856 0.1331012 0.3292441 -0.20244785 -0.1362042 0.24243753
-0.05145155 -0.28974018 -0.11000326 -0.034581218 -0.18723747 -0.2926637 -0.24467915 -0.1006397
-0.10755381 -0.1676334 -0.24765176 -0.013756596 0.416207 -0.14356573 -0.0047845445 0.1587286
0.3636595 0.33010447 -0.048361447 0.098515116 -0.23436634 0.13116765 0.011021285 -0.28273585
-0.21935466 -0.24216312 -0.17113414 -0.110021934 -0.29592955 -0.15398166 -0.21891235 -0.14479002
-0.0534656 0.2921289 -0.09621488 0.36504292 0.5092086 -0.22450085 -0.17476597 -0.0885144
-0.0693811 0.23416136 -0.36259574 0.10504376 -0.23448755 0.323039 0.40882522 -0.08012364
-0.11281663 -0.2751045 -0.16250594 0.14564884 0.44059515 -0.2683604 -0.37365028 -0.1762262
-0.3074465 0.14324066 0.3684217 0.09228115 0.23853539 -0.1946512 -0.12662123 -0.39141932
-0.27063248 0.0018834692 -0.3200915 0.3923494 -0.28614742 -0.20485966 -0.07043435 -0.35126555
-0.20180936 0.14606152 0.48390996 0.2679664 -0.3792541 0.012018747 0.0050355806 0.09979099
0.37813106 0.23799853 0.28620934 0.39483503 -0.23526281 -0.1612221 -0.3030149 0.07767551
-0.20015782 -0.24087997 0.3352803 0.39421597 -0.09279916 -0.04132258 0.17952208 -0.35576892
0.38050675 -0.28327 -0.13369319 0.359272 0.24087684 0.06980674 0.24211472 -0.2842636

head.bias f4 [4]
00000000: 2160 f73c c7e1 633c c414 e93d 0a87 f43c
0.030197205 0.01390881 0.11380914 0.029849548
