LunarLander-project-main/dqn_lunarlander.pth (torch, 279256 bytes, 6 tensors)

backbone.0.weight f4 [256, 8]
000000 39 dc 64 be e3 72 24 3d 57 2f 1b 3e 97 6a 85 be
       -0.22349633 0.040148627 0.15154777 -0.26057884
000010 f6 d9 3d 3d ec ae 52 3e 09 ae 21 be bc 7c 5a bc
       0.046350442 0.2057454 -0.15789045 -0.013335403
000020 2f f3 2d bd ac 45 e9 3c 6e c7 a3 be 7c 24 f5 3d
       -0.042468246 0.028475605 -0.3198809 0.119698495
000030 db 7d eb bc 73 39 7f bf 71 37 64 3e e9 44 f2 3d
       -0.028746536 -0.99697036 0.22286774 0.1182955
000040 0f b6 0e bf cd 25 0f be d7 2f 14 bf 62 ca ec bd
       -0.5574655 -0.13979264 -0.578855 -0.11562039
000050 08 88 60 bd 09 a6 35 be 92 34 21 bf 7b 5f 85 bd
       -0.05481723 -0.17739119 -0.6297084 -0.06512352
000060 a1 e3 37 3d 84 c7 59 be 8e 4d 27 bd 9a eb ad be
       0.04489482 -0.21267515 -0.040845446 -0.33968812
000070 ca d9 5a be 81 2a e2 3e a9 ee 15 3e 6b 02 1e bf
       -0.21372142 0.44173053 0.14641823 -0.6172244
000080 c8 83 0a 3e 60 9b e5 3d 05 57 a7 be c1 9c 5a 3e
       0.13526833 0.11211276 -0.32683578 0.2134886
000090 7d f5 42 3f 32 39 e9 3e df d6 59 be 58 fd 5d bf
       0.76155835 0.4555145 -0.21273373 -0.86714697
0000a0 7e 45 fb 3e d4 d4 84 3d fe f3 36 3d 3f ae e3 3d
       0.49076456 0.06485906 0.044666283 0.11117219
0000b0 fe 58 1d 3f 51 cf b7 3e 1f a5 11 bf e8 02 3b be
       0.61463916 0.35900357 -0.5689258 -0.18262827
0000c0 f0 35 89 3e af 69 46 be 43 e4 ee 3e 60 ec 1e be
       0.26798964 -0.19376253 0.46658525 -0.15519857
0000d0 b3 ca 50 be ef bb f5 3d 69 23 a4 3e 08 b8 14 be
       -0.20389824 0.11998736 0.32058266 -0.14523327
0000e0 9e aa 19 3e 1c 1a 3c 3e c9 0d dd bd fc 66 a2 be
       0.15006492 0.18369335 -0.10793645 -0.31719196
0000f0 6b 19 92 be 10 ad 75 be 12 0a 53 3d 0e ac 0a be
       -0.28535017 -0.239918 0.051523276 -0.13542196
000100 ae 18 08 3d 98 09 10 3e 2d f9 b9 3c be d0 46 3e
       0.03322666 0.1406616 0.022701824 0.19415566
000110 2a c3 aa be 4d 29 c8 be bc 58 f9 be 06 24 ca 3e
       -0.33352023 -0.3909401 -0.4870051 0.3948061
000120 30 1f 1d be ae 3d 5c be b1 b6 e4 3e 38 aa e6 be
       -0.15343928 -0.21507904 0.44670632 -0.45051742
000130 71 b5 81 be f2 fe 7e be a4 99 04 3e 39 73 01 3e
       -0.2533374 -0.24901941 0.12949234 0.1264161
000140 68 2c b5 3d eb 2e 37 3e 06 b0 cd 3e a1 85 84 bc
       0.088463604 0.17888992 0.40173358 -0.016177
000150 dd ca 3b 3d 89 f7 61 3e 21 de 17 3e d7 11 25 bf
       0.045847762 0.22067083 0.14830829 -0.64480346
000160 15 be 30 3f df e5 8d 3d d8 c4 01 3f 84 07 11 3e
       0.6904004 0.0692861 0.50690985 0.14163023
000170 c6 18 18 3e cf 04 b9 3e 99 e1 ff be 44 3e c2 3e
       0.148532 0.3613648 -0.49976805 0.3793813
000180 ef c8 6c 3d a4 e8 cf 3d bb 75 4f bd ec 76 79 3e
       0.057808813 0.101517946 -0.050649386 0.24361771
000190 05 c4 db 3d de 24 96 3e 62 03 bf 3e 3b 90 d3 be
       0.10730747 0.29325002 0.37307268 -0.41320977
0001a0 5b 34 8a 3c 8a 9c a4 bd 55 9c ac 3e 79 07 8a be
       0.016870668 -0.0803767 0.33713022 -0.26958826
0001b0 e7 cb b1 bb ac 4f 0c be 5f b3 19 be 01 15 c5 3e
       -0.0054259184 -0.13702267 -0.15009831 0.38492587
0001c0 66 a2 4a bb 41 a3 be 3d c6 6f d1 bc ec 91 20 3e
       -0.003091955 0.09308482 -0.025565993 0.15680665
0001d0 bb b3 7a 3e 56 44 d1 3e ca 74 af 3e 90 10 4b 3e
       0.24482624 0.4087245 0.3426879 0.19830537
0001e0 76 7d 06 bd 1b f5 7e 3d d0 35 b2 3d d7 b5 e6 bd
       -0.032834493 0.06224547 0.0870167 -0.11265152
0001f0 85 83 12 bf d2 d0 84 be 00 2e 0b bf e5 c4 86 bf
       -0.5723193 -0.25940567 -0.54367065 -1.0528837
000200 41 55 03 3f 81 26 17 3e 94 74 15 3e 93 5c 67 be
       0.5130196 0.14760782 0.14595252 -0.22593908
000210 23 15 c6 3e bf 5c 33 bd 80 08 27 3e 89 6e 6a 3e
       0.38688 -0.04378962 0.16311836 0.22893728
000220 82 97 00 3f ba 79 0f 3e 69 da 9e bd af c0 32 be
       0.5023118 0.14011279 -0.07756502 -0.17456315
000230 95 8e 2e 3e b6 dd 37 bf 76 a8 13 be 26 d5 11 3e
       0.17046578 -0.7182268 -0.14419731 0.14241466
000240 62 89 42 bd 07 de d8 bd ba 85 a7 bd ee 5f ec bd
       -0.0474943 -0.10589223 -0.08179803 -0.11541735
000250 6f 22 bc 3e 47 1b e9 3e f6 23 d2 3e 0d 62 c8 3d
       0.3674502 0.45528623 0.4104306 0.09784327
000260 64 5e 19 bf eb 17 55 be 67 f8 07 bf af b8 10 be
       -0.59909654 -0.20809905 -0.53113407 -0.14132951
000270 c8 fe 3a be 85 18 f7 3d 68 53 8c 3e 97 1a 0f 3e
       -0.18261254 0.120652236 0.27407384 0.13974987
000280 cb ae 84 be e3 db 41 3e c9 28 b2 bc 3a 00 80 be
       -0.25914606 0.18931536 -0.021747964 -0.25000173
000290 b9 02 97 bd 27 cb c2 3e d1 3e 31 bc 6c 55 4d be
       -0.07373566 0.38045618 -0.010818199 -0.20052117
0002a0 f9 31 8c be fd 57 8c bd b4 78 1e 3e 2a 95 31 be
       -0.27381876 -0.0685272 0.15475732 -0.17342058
0002b0 9c 6f 47 be f1 40 0d 3f 8b 2f b6 3e 9f 29 61 3e
       -0.1947617 0.5517722 0.35583147 0.21988533
0002c0 bc 33 97 3b 19 0f 62 3d 75 de 88 be 7a ac de 3e
       0.0046143215 0.05519018 -0.2673222 0.43490964
0002d0 35 d1 e9 be fd c5 50 be 47 a1 33 3e 35 93 b1 3e
       -0.45667425 -0.20388027 0.17541991 0.34682623
0002e0 97 83 36 be ee 02 64 be 51 c3 86 3e 62 1e e6 be
       -0.17823635 -0.22266743 0.2632089 -0.44945055
0002f0 9e c9 3a be 73 a3 81 3e c1 24 fb 3d ad 2e 3b 3e
       -0.18240973 0.25320014 0.122628696 0.18279524
000300 04 ba 1e bb 87 89 3b 3d de 79 aa bc 22 46 de bd
       -0.002421976 0.045785453 -0.020810064 -0.108532205
000310 84 1b 83 be c4 89 1f bf 5f e3 3a 3e 10 8b a4 3e
       -0.2560693 -0.6231959 0.18250798 0.32137346
000320 70 3b 43 be 48 19 ce bd 13 52 04 bf fb 22 b5 3e
       -0.19065642 -0.10063416 -0.51687735 0.3537825
000330 8f cc 46 bd cd 02 d9 be b2 f9 2f 3e bb e6 03 3f
       -0.048534926 -0.4238495 0.17185095 0.5152394
000340 2d fb 1d 3f 32 84 0f be 60 68 c6 3e 26 6b 3c bc
       0.6171139 -0.14015272 0.38751507 -0.011500156
000350 a9 4b 11 3e 44 62 cb bd 18 61 e5 3c 8d 87 aa 3c
       0.14189018 -0.09930852 0.0280004 0.020816589
000360 f1 2f 90 3d fe f2 e4 bc 4c c1 22 3e bb b6 c8 be
       0.07040394 -0.027947899 0.1589405 -0.39201912
000370 b1 95 2b 3e ba da 4a be a0 5a ef bd e2 f4 2d 3e
       0.16756321 -0.1981 -0.11687207 0.16987947
000380 04 4a 84 be 50 5a 8e 3d 6d 0f bd 3e 35 65 c8 bd
       -0.2583772 0.069508195 0.3692583 -0.09784929
000390 f7 a2 26 bf 7f d9 eb be a0 ec 0f 3e 2e a1 83 3c
       -0.65092415 -0.46064374 0.14055109 0.016068067
0003a0 82 2b b3 3d ed 8d 1a 3b 5f cf 69 3c db 51 ef 3e
       0.08748533 0.002358313 0.0142706325 0.46742138
0003b0 2d 11 4c bf 86 f2 df 3d b5 89 e7 be 21 45 c2 bb
       -0.7971371 0.109349295 -0.4522225 -0.005928651
0003c0 91 31 dc bd d9 df 8a 3d ec 5c 84 3e cb d5 f8 3c
       -0.107516415 0.06780977 0.25852144 0.030375382
0003d0 da c8 1b bf 2e 61 be be 57 55 28 bf 49 12 c1 3d
       -0.6085335 -0.37183517 -0.6575522 0.09427316
0003e0 b9 61 e0 3d bc 9a 72 3d 0b e1 10 be 44 60 89 be
       0.10956139 0.059229597 -0.14148347 -0.26831257
0003f0 1c 3f 29 3e aa ea 1a 3e 43 e4 f0 3e b7 1a 69 be
       0.1652798 0.1512858 0.4704915 -0.22764097

backbone.0.bias f4 [256]
000000 6e 58 0f 3e c2 4a 7e 39 d8 2d 91 bd 0e 1a 18 be
       0.13998577 0.00024251177 -0.07088822 -0.14853689
000010 54 d8 e5 3d ec c0 0c bd a5 90 09 be 31 0b 0f 3e
       0.11222902 -0.034363672 -0.13434084 0.13969113
000020 25 52 a5 3d 84 5f 97 3c 35 b5 60 3e 61 f6 66 3d
       0.080723085 0.018478163 0.21944125 0.05638731
000030 52 b8 19 3e 71 7f 08 3e d1 91 0e 3e 5e 3e 29 3d
       0.15011719 0.13329865 0.13922812 0.041319244
000040 0b 7c 9f 3d aa 07 80 3d 63 b7 46 bd 72 7d 99 bd
       0.07787331 0.06251462 -0.048514735 -0.0749463
000050 06 b8 1b 3d fd 93 3f bd c0 d9 96 be f6 36 8a bc
       0.038017295 -0.046771992 -0.29463005 -0.01687191
000060 2b c7 53 bd 3f c8 38 be 4f 52 ab bc 5d d7 8e 3d
       -0.051703613 -0.18045138 -0.020913271 0.06974671
000070 8b cd bf bb 8c e5 82 bd 3d 1e a0 3b 78 a3 58 3d
       -0.00585336 -0.06391439 0.004886417 0.05289027
000080 a4 24 3b 3e 0b da 38 3e c3 c5 ab bc 8a df 0a 3e
       0.18275696 0.18051927 -0.020968324 0.13561836
000090 93 08 24 3e b9 8e 39 3e 1e a1 05 be df 1d 71 3e
       0.16018896 0.1812085 -0.13049743 0.23546551
0000a0 7a c7 75 3d fa 00 7a be ee 72 11 3e 10 88 e0 be
       0.06000469 -0.24414435 0.14203998 -0.43853807
0000b0 b7 fa 5c bd 4e 89 92 bd b4 0f e9 bd 5c 08 b1 bd
       -0.053950038 -0.07155095 -0.11379948 -0.086441725
0000c0 89 d9 0b be 58 0d 57 3e be 43 2d bc 1e 75 11 3e
       -0.13657202 0.21001184 -0.010575233 0.14204833
0000d0 d4 ba c9 3a b0 bb 70 3d e0 cb 86 bc 94 fe 02 3e
       0.0015390762 0.058772743 -0.016454637 0.12792426
0000e0 27 a0 f4 3d 06 39 8b 3d 2c ad 45 bd 47 11 25 be
       0.11944609 0.06797986 -0.048260853 -0.16119872
0000f0 c7 ec 4b 3e 48 1c ab 3d c5 56 83 3c de 13 bb bd
       0.19914542 0.083550036 0.016032586 -0.09134649
000100 95 25 c2 bc 99 20 25 3d ab c7 a7 bd ed 86 55 3e
       -0.023699561 0.04031429 -0.081923805 0.20852251
000110 ff d4 da 3c 3c d4 18 3e 13 8f 0d be ff db 4d 3d
       0.026712893 0.14924711 -0.1382411 0.050258633
000120 47 68 2c be e1 01 62 bd f6 75 5e 3e 8a 5c 99 3d
       -0.16836654 -0.055177573 0.21724686 0.074883536
000130 d8 64 30 3d b0 bb ce 3b 82 d6 20 be c3 29 df 3a
       0.043064922 0.006308995 -0.15706828 0.0017025996
000140 ce 17 f0 bc 99 40 08 3d 8d f8 be 3c 90 77 e3 3d
       -0.029308226 0.03326473 0.023311878 0.11106789
000150 b1 40 36 be 2f 68 ba 3d 4e 64 24 3e dc 33 bd bd
       -0.17798115 0.09101903 0.16053888 -0.09238407
000160 9c bb 1b be e9 27 39 3e bf b0 30 3e 25 67 2c be
       -0.15208286 0.18081631 0.17254923 -0.16836222
000170 df 39 17 3c f1 0f 0b 3e 2b 39 ab 3d 60 1b 53 3d
       0.009230106 0.135803 0.08360513 0.05153978
000180 b5 69 48 3d 1c 3f 80 3d e2 7f 50 bd 58 bd d9 3a
       0.048928935 0.06262037 -0.05090321 0.0016612215
000190 be 63 dd 3d c3 91 00 be 2e 3f 35 bd 28 e0 b9 bd
       0.1081004 -0.12555604 -0.044249706 -0.090759575
0001a0 66 6d 40 bd 5f 3d 22 be 62 50 47 3d 42 4e 9e 3b
       -0.04697933 -0.15843724 0.048660643 0.0048311064
0001b0 07 8f 93 3d 1d 4b 08 3e e5 c6 13 3e b2 8f e0 3d
       0.07205015 0.13309903 0.14431341 0.10964908
0001c0 c4 ab 1c 3e b6 fc c8 bc e1 45 ca 3d 1c 4a 9a bd
       0.15299898 -0.024534564 0.098766096 -0.075336665
0001d0 c7 f2 02 bc 22 2b da bb 9c d5 c6 3d 18 cd 37 3e
       -0.007992453 -0.006657974 0.097087115 0.17949331
0001e0 b0 38 67 bd 2c b9 7e 3e e0 90 a2 3c 0f 93 a9 bd
       -0.056450546 0.24875325 0.019844472 -0.08280002
0001f0 79 68 61 be aa a9 31 3e 01 f0 3b 3d 33 ba 02 3c
       -0.2201251 0.17349878 0.045883182 0.007978964
000200 e1 6c c8 3d 23 07 91 3d 1c 2a e6 3e 0d 79 4b bb
       0.09786392 0.07081439 0.44954002 -0.0031047494
000210 ed 60 2f 3e 12 68 12 be 79 b2 a4 bc 03 5d 0f bd
       0.17126818 -0.14297512 -0.020104634 -0.035000812
000220 5d dd b0 3d 2d 39 8d bd e9 01 51 3d b2 4f 6e bd
       0.08635972 -0.06895671 0.051027212 -0.058181472
000230 da 1c 36 3e 14 6a 16 3e 68 97 18 3e 21 23 a3 3c
       0.17784443 0.14688903 0.14901507 0.019914212
000240 7d 81 ca 3d ca 68 82 3d 19 48 9c bd bc 7c 6d 3c
       0.09887979 0.06367643 -0.07630939 0.014495071
000250 2e 53 8f 3d f6 7f 3b be f0 85 24 3d 52 07 86 3d
       0.06998287 -0.18310532 0.040166795 0.06544365
000260 7f d2 53 3e ce 35 2f bc d9 ac 00 be 2a 1e 1c 3e
       0.20685767 -0.01069398 -0.12565936 0.15245882
000270 e8 73 e6 3b 95 07 e1 bd 34 e5 2e 3e 35 a0 45 be
       0.00703286 -0.10987774 0.17079622 -0.19299395
000280 64 52 1b 3c c9 02 f4 bc 75 8e 13 3e 63 c0 35 3d
       0.009480093 -0.029786484 0.14409812 0.044372927
000290 7f 24 51 3d 2b 5e 02 3e 8c 25 e2 bc 63 83 2e bb
       0.051060196 0.12731235 -0.027605794 -0.0026628606
0002a0 10 e0 31 3e e4 b1 19 3c bc c3 fc 3d b8 7c 96 bc
       0.1737063 0.009380791 0.12342021 -0.018370017
0002b0 93 ca c6 3c 99 97 49 3e 88 8d 07 3e c7 5d 3a 3c
       0.024266517 0.19686736 0.13237584 0.011374897
0002c0 02 43 61 3d 32 9b 25 3d 90 dc 0d 3e 47 c3 3f be
       0.054995544 0.04043121 0.13853669 -0.18726836
0002d0 1c 9a 5f be 70 7a a8 bd 1b e0 c8 3b eb 10 a8 3d
       -0.21836132 -0.08226478 0.006130231 0.08206352
0002e0 a4 f8 da 3d 7e 8e 9a 3e a4 8c b3 3d d0 c4 81 3d
       0.10691956 0.30186838 0.087670594 0.06336367
0002f0 b8 04 7c 3e 14 b6 a1 bb aa 27 4c 3e 18 51 6a 3b
       0.24611175 -0.0049350355 0.19937006 0.0035753902
000300 3e f2 18 bd a2 da 32 be ff 28 f2 3d b1 85 be 3d
       -0.037340395 -0.17466214 0.11824226 0.09302843
000310 88 2c 37 3e ea 88 70 3e 17 8a 44 3c 4a bf 32 3d
       0.17888081 0.23489729 0.011995814 0.04363946
000320 83 fb 84 3b 07 99 3c 3d a3 1b 38 3d fa 7b a1 3e
       0.004058303 0.046044376 0.04494823 0.315399
000330 19 20 cc 3c 62 19 10 bc 39 a1 df 3e b2 dd 8d bd
       0.02491765 -0.008795114 0.4367769 -0.06927051
000340 02 f0 3a 3e 77 9d 14 bb 88 23 75 3c 17 ea 24 be
       0.18255618 -0.0022676864 0.014962085 -0.16104923
000350 83 d9 0a bd df 4c bb 3d 39 01 ad 3d b0 c9 29 3e
       -0.03389884 0.091455214 0.08447499 0.16580844
000360 c3 7a d5 3d e9 c7 4b bd dd 43 2f 3e 1e be f1 3e
       0.104238056 -0.049751196 0.17115732 0.4721536
000370 1c c8 10 be d7 4b 22 3c fb a8 98 bd c6 8c 8e 3d
       -0.14138836 0.009905777 -0.074541055 0.06960444
000380 5c ea fd be bb c4 2f 3d 2b b5 34 bd 0b fa f2 3d
       -0.49592865 0.042912226 -0.044118088 0.11864098
000390 0e 25 f5 3d 2d b6 1c 3e f0 6c 34 3e ef 93 18 bd
       0.11969958 0.1530387 0.17619681 -0.037250455
0003a0 42 86 66 3d e6 bf 2d 39 3e 71 aa 3d 77 7c 4e bd
       0.056280382 0.00016570053 0.083223805 -0.050411668
0003b0 2b a5 3d 3e bd 83 77 3d a8 65 c8 3d e6 2a e0 3c
       0.18520038 0.06042837 0.097850144 0.027364206
0003c0 56 e6 30 3e 30 b2 46 bc 7c 92 62 3d cf 87 ed 3d
       0.17275366 -0.012127444 0.05531548 0.11598169
0003d0 95 75 29 3e a8 a3 24 3e af 89 df 39 99 42 35 3e
       0.1654876 0.16078055 0.00042636457 0.17701186
0003e0 ff 0e 8a 3d e9 7d 1f be 52 54 6d 3e 1a 7d 1f 3b
       0.067411415 -0.15575375 0.23176697 0.002433604
0003f0 ce 57 e8 3d 92 f7 27 be 1b af 8a bd 63 00 e8 bd
       0.113448724 -0.16403034 -0.0677168 -0.11328199

backbone.2.weight f4 [256, 256]
000000 16 de c4 bd 5a 5f 2e 3e 05 1d 30 3f 19 0c bc bd
       -0.09612672 0.17028561 0.6879428 -0.09181995
000010 4a 96 89 3e 26 c9 f1 bd 55 00 06 3e 06 30 9b bd
       0.26872474 -0.11805944 0.13086064 -0.07577519
000020 2e 94 c9 3b eb 0e 91 3e b0 f0 97 bb bf 95 17 3e
       0.0061516976 0.28331694 -0.0046368465 0.14803217
000030 73 1b 59 3e e1 7a ed bd 60 2c 5f 3e 11 6b 55 3e
       0.21201877 -0.11595703 0.21794271 0.20841624
000040 6a 5d f9 be 39 dc a1 be c1 9a 5c 3e d0 17 41 3e
       -0.48704082 -0.3161333 0.21543409 0.1885674
000050 14 3b fc bc 66 69 92 3e 8f ab 34 3e a9 97 5d 3e
       -0.03078989 0.28596038 0.1764357 0.21639885
000060 c0 3f 03 3e bf 8b 2c 3d 34 fe f2 3e 90 97 25 be
       0.12817287 0.04212546 0.47459567 -0.16171098
000070 65 4f 3a be 86 67 eb be 82 94 53 3d 40 ad f0 bd
       -0.18194349 -0.4597742 0.0516553 -0.11751795
000080 56 ab 62 3d 8a b4 91 3e 1c f9 61 3e 07 4c aa 3d
       0.05533918 0.28458053 0.22067684 0.08315282
000090 af 8e 47 bc 72 45 cc 3c b6 93 b6 3e 4b eb 9c 3e
       -0.0121800145 0.024935458 0.3565957 0.30648264
0000a0 97 13 27 3f a3 cd 53 3e 99 93 bc 3e 22 e2 72 3f
       0.65264267 0.20683913 0.36831358 0.948763
0000b0 e7 f7 c6 3e b8 40 66 3e cc 22 8d 3e 0b ba ea 3d
       0.3886101 0.22485626 0.2756561 0.11461266
0000c0 bc 83 07 3f ab b8 78 bd ad c1 84 be d8 2c 32 3e
       0.52935386 -0.060722988 -0.25929013 0.17399919
0000d0 32 8c fc be a9 82 23 be ff c5 d1 be 38 98 46 3d
       -0.4932571 -0.15967812 -0.40971372 0.04848501
0000e0 d4 cc 89 3e 16 a2 ce 3e 24 14 3a bd 77 5b 93 3e
       0.26914084 0.40358037 -0.045429364 0.2878072
0000f0 26 7e 90 bb 48 c1 2a be d0 d7 b0 be 8f 95 19 3f
       -0.0044095693 -0.16675293 -0.34539652 0.59993833
000100 6a dd 6c 3e e6 02 4d be 5b af 59 3d 97 a7 c4 bd
       0.23131338 -0.20020637 0.053145748 -0.09602278
000110 85 2b 98 3d 45 d5 0d bc fd 48 09 3e 08 9d e8 3c
       0.07430176 -0.008656804 0.13406749 0.02839519
000120 9d bd 23 3f c5 36 1d bf 05 b6 0c be 00 4b 99 3e
       0.639612 -0.61411697 -0.1374131 0.29940033
000130 da 70 ab bd e6 50 a0 bd 5f e9 9f 3e 45 ca 88 be
       -0.08371134 -0.0782793 0.31232736 -0.2671682
000140 9b a1 0a 3f a4 ae c1 bd 45 1a 38 be 9c ab 6b 3c
       0.5415284 -0.09457138 -0.17978771 0.014384177
000150 8a ee 5e 3e 93 9b 85 3d 6e 00 f5 bd 4c d0 29 bf
       0.21770683 0.06523814 -0.119629726 -0.6633346
000160 9a 59 08 bf b0 64 09 be 48 12 d3 bd 52 e4 92 3e
       -0.5326172 -0.13417315 -0.10306221 0.2868982
000170 c3 af 09 3e c1 4b 2b be 8a ed 24 3f fb 12 78 3e
       0.13445954 -0.16728117 0.64424956 0.2422599
000180 6b 3f 82 be 60 7f 35 bd 5a f8 1e bf 8c 0c ba 3e
       -0.2543901 -0.044310927 -0.62097704 0.36337698
000190 84 2f 05 bc b5 93 8c 3d c6 6c 5d 3e cb 55 6f bd
       -0.008129004 0.068641104 0.21623525 -0.058431428
0001a0 08 09 b1 3e 39 ae a1 3e b8 15 41 3e b2 f0 6e bf
       0.34577203 0.31578234 0.18855941 -0.9333602
0001b0 95 fe 5b 3e e0 75 a7 3d 56 e7 34 3c 06 b5 8a bd
       0.21483834 0.0817678 0.011041483 -0.06772809
0001c0 8f 7b 2a 3e a1 33 ed 3e 99 b5 52 3d 16 bf c1 be
       0.16648696 0.46328452 0.051442716 -0.378411
0001d0 19 1e 5f bf e6 d6 00 3e 0c a9 b1 3e 15 c5 71 3e
       -0.871553 0.12581977 0.34699285 0.23610337
0001e0 4a 41 19 3f 0f 60 ea 3d a4 27 70 bc 5a 43 bb 3e
       0.5986525 0.11444103 -0.014657889 0.36574823
0001f0 51 37 88 3b 20 89 58 be 19 d3 c9 3e b9 5e 53 bc
       0.004156985 -0.21146059 0.39418867 -0.012901002
000200 b3 f1 56 3e f8 29 b6 3d e6 ce 7a be 83 c6 9f be
       0.20990638 0.08894724 -0.24492988 -0.3120614
000210 35 5e 5c bd 6c 81 17 3e a1 48 38 bf 5e f7 aa 3e
       -0.05380078 0.14795464 -0.7198582 0.3339185
000220 73 5d 92 3e 33 22 49 3d 73 86 69 3e b4 81 8d 3e
       0.2858692 0.04910488 0.22805195 0.27638018
000230 e5 e8 95 3d 00 d9 1d 3e 31 d9 0d 3e 1d e2 47 3e
       0.07319812 0.1541481 0.13852383 0.19519849
000240 1b 95 3c be e1 a2 00 3e 5e e8 32 3e f0 da b7 bd
       -0.18416254 0.12562133 0.17471454 -0.08977306
000250 23 f1 89 3e cd 67 b0 3e 41 f9 47 3e ce 76 1e 3e
       0.26941785 0.34454194 0.19528677 0.15475008
000260 9f e3 5b bd 76 0a 09 bf a5 72 d2 3d d4 76 91 3e
       -0.053683873 -0.5353159 0.10275773 0.2841097
000270 23 33 50 3e eb 48 fe 3d 44 b1 c4 3d 45 4f fe 3e
       0.20332007 0.12416252 0.09604123 0.49669853
000280 71 c1 91 3b 31 83 64 3e 00 bf b4 3e f8 6c 43 3e
       0.004448109 0.2231567 0.3530197 0.19084537
000290 ac 9f 4a 3e 2b 29 96 3e d9 8d 0a bd 50 9c 05 bf
       0.19787472 0.29328284 -0.033826683 -0.5219164
0002a0 2f 9a 38 bd cf a2 19 be e0 11 90 3e 79 94 19 bf
       -0.045068916 -0.15003513 0.28138638 -0.59992176
0002b0 83 ec 65 3e 9c b0 a4 3e 6d d7 a6 bc 5f 59 3f 3e
       0.22453503 0.32165992 -0.020366395 0.18686436
0002c0 31 c1 03 bf 31 e0 28 be ba ab 11 3e e1 1d 98 3e
       -0.5146666 -0.16491772 0.14225665 0.29710296
0002d0 54 58 6f 3e 5e 12 b9 bd d5 71 95 be 17 8b af 3d
       0.23373538 -0.090367064 -0.2918841 0.08571451
0002e0 b4 4d bb 3d d6 cc df 3c a3 95 4c 3d 77 64 cd 3d
       0.0914568 0.027319353 0.049947392 0.10028928
0002f0 e8 5f 90 3e 94 2d d4 3d 68 b4 49 bd 9b 70 aa bd
       0.2819817 0.10360256 -0.049244314 -0.08322259
000300 6d 4c 81 be 00 b1 3e 3e 26 76 6f bd 28 84 80 3d
       -0.2525362 0.18622208 -0.058462285 0.06275207
000310 5f fd e4 3b 43 64 46 3e 13 13 55 3e e0 58 7e 3e
       0.006988212 0.19374184 0.20808057 0.2483859
000320 62 75 98 be 00 62 95 3e 0e d8 a0 be 0a 5b f8 3d
       -0.29777056 0.2917633 -0.31414837 0.12126739
000330 91 a6 48 bd 86 09 31 3e 97 5f 69 3d fd 49 8c 3e
       -0.048986975 0.17288789 0.056975927 0.274002
000340 60 6a 1f be be 92 db 3d 57 f7 0e be c5 e4 7b 3d
       -0.15567923 0.10721348 -0.1396154 0.06149747
000350 c5 3a 64 bf 1d 16 0e bd 70 71 1e 3d 35 8d 1f 3d
       -0.89152175 -0.034689058 0.0386824 0.038953025
000360 e4 67 b6 3d b7 29 1d 3e 6b 01 9b 3d e9 19 7e 3c
       0.08906534 0.15347944 0.0756863 0.015509107
000370 ef 75 20 bf 45 3a 99 3d 38 0b 02 bf 94 b9 99 3e
       -0.6267995 0.07481817 -0.5079837 0.30024397
000380 61 c8 61 3f 58 da 27 be 30 b4 14 3e 71 be f0 3d
       0.8819638 -0.16391885 0.14521861 0.11755074
000390 10 9d d8 bc 63 db c8 3a 9a 28 43 3e 21 b5 10 be
       -0.02644208 0.0015324171 0.19058457 -0.14131595
0003a0 8e ca 69 bd 61 99 9b be 24 20 b9 3d af d5 f5 3e
       -0.057077937 -0.30390456 0.090393335 0.4801459
0003b0 c4 50 9f 3d 98 4b b5 3d 8a d1 0d 3e f5 94 80 3e
       0.07779077 0.08852309 0.13849464 0.25113645
0003c0 a0 93 68 3c 48 e6 8d 3e ba 5c 2c 3e 1e 47 a6 3e
       0.014195353 0.27714753 0.16832247 0.32476133
0003d0 98 cd 4f be a4 88 ba be b9 6a fe be 24 a2 21 3d
       -0.20293272 -0.36432374 -0.49690798 0.03946127
0003e0 bd 5f 10 3e 10 83 c0 3e dd 06 81 3e d9 d6 bb 3e
       0.14099021 0.37599993 0.2520055 0.36687353
0003f0 35 7d 95 bd 28 1d f3 3e 51 75 6b 3e 88 31 06 3f
       -0.07299272 0.47483182 0.22993971 0.5241933

backbone.2.bias f4 [256]
000000 89 f8 64 bd 76 5b d6 3b f9 14 10 be 5a 30 60 3e
       -0.055901084 0.0065416647 -0.140705 0.21893445
000010 6c 3a 2d be c8 00 0e bd 56 e4 01 3e 60 58 c7 3e
       -0.16916817 -0.034668714 0.1268476 0.38934612
000020 79 20 5d bd 8a 0e 9b bc dc cd c5 3d f8 9c ad be
       -0.053986046 -0.018927831 0.09658405 -0.3390882
000030 e9 f3 25 3e 75 02 3a bd 4a 84 3a 3d 45 73 e4 3d
       0.16206326 -0.0454125 0.045536317 0.111547984
000040 b6 b1 fe bd 5a c9 67 bb 73 89 80 3d 78 72 b0 bc
       -0.124362394 -0.0035367818 0.06276216 -0.021538958
000050 91 7f 38 be 58 83 1e bf 8f 76 5c be a7 ab 9b 3c
       -0.18017413 -0.61919165 -0.21529602 0.019002749
000060 59 b9 fa bd 58 12 73 3e 15 35 91 3a b5 25 89 be
       -0.122423835 0.23737466 0.0011078442 -0.2678658
000070 e1 9d 1e bc a8 65 3e 3e 33 79 84 3e 55 38 36 3e
       -0.009681196 0.18593466 0.25873718 0.17794926
000080 0c a4 47 3e bb 41 57 bd c2 b8 b9 bd 7e 4d 09 be
       0.19496173 -0.05255292 -0.09068443 -0.13408467
000090 fb ad 25 3e c3 37 b4 be d0 eb 55 3c 3e 7d dc bd
       0.1617965 -0.35198793 0.01305671 -0.107660756
0000a0 7d 1b 54 be da aa e4 bc ff 6f ee 3d c9 66 67 be
       -0.20713611 -0.0279135 0.11642455 -0.22597803
0000b0 67 ef dd 3c ba 19 98 3e a4 09 04 bf 8a c1 4e bd
       0.027091695 0.29707128 -0.5157721 -0.050477542
0000c0 6d 20 0c bc 38 b7 6e bc 30 23 47 3e 7c 30 76 3e
       -0.008552653 -0.01457005 0.19447017 0.24041933
0000d0 11 57 c7 be 06 c4 48 3e d4 e4 f5 be 93 10 c5 bc
       -0.38933614 0.19606027 -0.48026145 -0.024055755
0000e0 68 65 9f bd ae d4 b3 bc 84 4e 53 bd 46 79 c6 bd
       -0.077830136 -0.021952 -0.05158855 -0.096911
0000f0 de 24 b5 bc 2c 04 4b be 2c a9 86 bd 64 fe e9 bd
       -0.022112306 -0.1982581 -0.06575236 -0.11425474
000100 8d 5d 89 3e 64 d3 16 bd b8 3e 85 bc 38 bb 00 be
       0.26829186 -0.03682269 -0.016265258 -0.12571418
000110 60 d2 39 3e 37 14 b0 bd 61 00 72 be 30 65 71 be
       0.18146658 -0.08597606 -0.23632957 -0.23573756
000120 69 58 87 bd ca 0a aa 3e c5 c7 3a 3e df 01 d6 3a
       -0.0660866 0.33211356 0.18240269 0.0016327462
000130 bf dd 79 3e 58 90 7c 3e 57 d1 03 3e 8b c2 67 be
       0.24400996 0.24664438 0.12872826 -0.22632806
000140 18 81 48 be d7 38 d6 3d d9 4f 29 bc 8a f7 6f bd
       -0.19580495 0.1046006 -0.010333979 -0.05858568
000150 4f 7b 21 3e 8d b8 f1 bc c4 7f 41 3e 2f a2 5f bc
       0.15769695 -0.029506946 0.18896395 -0.013649507
000160 f8 ba 1c bd 1a b8 e5 bd 36 03 16 3e c4 75 e0 3d
       -0.038264245 -0.11216755 0.14649662 0.10959962
000170 29 bc d1 3d e0 5d 50 3e 0d 2f 42 3c f1 00 24 3e
       0.10240967 0.2034831 0.011852038 0.16015984
000180 6e 09 e1 bc 44 c3 e1 bd 98 55 cb bc ce 5f 21 bd
       -0.027470317 -0.11023572 -0.024821088 -0.039398007
000190 65 21 da be d6 91 54 bd f9 d9 04 3e 5a dd b7 3b
       -0.42603603 -0.051896892 0.12973775 0.005611104
0001a0 b1 c7 27 be a4 54 9d 3e 3d 46 41 3e a1 1c 26 bd
       -0.1638477 0.30728638 0.1887445 -0.040554646
0001b0 99 81 a1 bc 31 95 b7 be cd 82 82 be e4 1f 52 bd
       -0.019715117 -0.35856012 -0.25490418 -0.051299945
0001c0 aa 60 bb bc 5e 9f 70 bc bd e4 0b bd 54 2c 4d 3e
       -0.022873241 -0.014686434 -0.03415369 0.20036441
0001d0 1e c4 06 be 85 34 e9 bd 87 e8 21 bd 16 48 a1 be
       -0.1316075 -0.113869704 -0.039528396 -0.3150031
0001e0 df 54 ec be d6 ce 94 bd d9 30 c5 bc 24 95 54 3e
       -0.46158502 -0.07266013 -0.024071144 0.20760018
0001f0 49 fe b1 be b5 23 32 bc 5a c3 90 bd 1c 2a 8f 3e
       -0.34764317 -0.010872771 -0.0706851 0.27961814
000200 b2 b8 1d bd 23 d2 bd 3c 80 c2 ee 3c d0 fe d9 bd
       -0.038506217 0.02317149 0.02914548 -0.10644305
000210 a2 f9 35 3e 4c a9 0c 3e 16 bb 3e bc 24 96 d9 bc
       0.17771009 0.13736457 -0.011641284 -0.02656085
000220 91 ca 16 bd 87 68 58 3e 7b 24 c8 3e 77 6a c6 bd
       -0.036814276 0.21133624 0.39090332 -0.09688275
000230 0d 4f 50 3e 0e 10 9f bd c1 cd a3 3e fc 8b 9b be
       0.20342655 -0.07766734 0.31992915 -0.30380237
000240 25 dc f6 bc 5d 48 84 bb 6e 37 0b be 27 97 18 bd
       -0.03013427 -0.0040369467 -0.13595363 -0.037253525
000250 1c 7f 8b 3e 50 81 2a be c4 57 5e be 65 e9 6d 3e
       0.27245414 -0.16650891 -0.21713167 0.23233564
000260 5a 5b aa bd 39 53 93 3c e5 38 0a bf 95 69 1a bd
       -0.08318205 0.01798402 -0.53993064 -0.037698347
000270 1d 95 1f bd 0b 3f a9 be b4 e7 f1 3d 53 26 3b bd
       -0.038960565 -0.3305591 0.11811772 -0.045690846
000280 fe 28 ff bc f9 24 44 3e c6 f9 32 bd d5 ef 1f 3e
       -0.031147476 0.19154729 -0.043695234 0.15618832
000290 68 64 08 3d 0b 70 45 bd c1 0d 91 bd f5 13 35 3e
       0.03329888 -0.048202556 -0.070827015 0.17683394
0002a0 34 5e c9 3d 07 53 8e 3e 8b 38 9a 3d fe a2 a9 bc
       0.09832421 0.2779772 0.07530316 -0.020707604
0002b0 fc 0d 03 be 45 ca 5b 3e bb 74 ee bc b2 7e 89 be
       -0.12798303 0.21463878 -0.029108396 -0.26854473
0002c0 b5 de 7c bb 8c b1 03 be f1 66 8b bd 26 88 6a 3e
       -0.0038584892 -0.12860698 -0.06806744 0.22903499
0002d0 71 03 a3 bd be 64 aa be c3 38 73 bd 31 9b b6 bd
       -0.07959641 -0.33279985 -0.059380304 -0.08916319
0002e0 8c a4 32 bc 5b ad 75 3e 20 d3 21 bd 74 5a 98 3e
       -0.010903489 0.23991911 -0.039507985 0.2975651
0002f0 f9 4e f4 3c 39 65 98 39 b0 98 6c 3e d8 61 3c 3d
       0.029822813 0.00029067116 0.2310512 0.04599175
000300 5f 5c 3f bd 16 40 62 3e 31 de 82 bd ff 39 dc 3d
       -0.04671895 0.2209476 -0.06390036 0.107532494
000310 8e 14 72 bc b7 4c 7f 3e e7 c2 07 3e 11 02 a2 bd
       -0.014775408 0.24931608 0.13257943 -0.079105504
000320 77 0d 7e be ea 2a 14 be 3f 04 a6 be 6a d6 1c bd
       -0.24809824 -0.14469495 -0.32425115 -0.03829042
000330 0d 37 59 3e b7 5d f7 bc ae ae 4f bd b1 4a c2 be
       0.21212406 -0.030196054 -0.050703697 -0.3794761
000340 df 10 9a bd c5 f0 05 3e da 12 7d 3e 9b cf a7 bc
       -0.07522749 0.13080128 0.24714223 -0.020484736
000350 9c 87 4a 3e e6 6f 29 3d 9a 0d 28 be 84 52 7c 3d
       0.19778293 0.04136648 -0.16411439 0.06160213
000360 0c 7a 3f be 01 c6 49 bc f3 56 fb 3c 64 48 86 3e
       -0.18698901 -0.012315274 0.030681109 0.26227105
000370 91 cf 88 3d fe dd 1e bd fe 83 35 be 48 a1 a1 be
       0.06680215 -0.038785927 -0.17726132 -0.3156836
000380 6c 0f 31 3d 1c a5 40 bc 75 93 82 3e 27 46 74 3d
       0.043227598 -0.011758115 0.25503126 0.059637215
000390 82 3a e1 3c 6f 1f a8 3d 70 ef bc bc 19 94 1c 3f
       0.027493719 0.082091205 -0.023063391 0.6116348
0003a0 ba ad bc 3d c3 ec 23 be f6 1f aa 3d 04 39 ee 3d
       0.09212823 -0.16008286 0.08306877 0.116319686
0003b0 51 16 df 3e bb 5d 98 bd 58 04 21 3d 9e 23 2a bc
       0.43571714 -0.07439753 0.039310783 -0.010384468
0003c0 ed e7 53 be 0a 9b 8f bd e2 ac 81 3e 76 8b 47 3d
       -0.20693941 -0.07011993 0.25327212 0.048716985
0003d0 29 75 cc bc 8e 9d a1 bd 2b d7 57 3e 34 43 d0 3d
       -0.02495821 -0.07891379 0.21078174 0.10169068
0003e0 4a b6 51 3e 10 94 9d 3c ce b3 45 3e 2f a0 31 3e
       0.20479694 0.01923564 0.19306871 0.17346261
0003f0 f1 d6 83 3e ee 7e f9 bc d3 49 88 3e 9a d1 f5 bc
       0.25749925 -0.030456033 0.26618823 -0.030007172

head.weight f4 [4, 256]
000000 b9 0a ab be 76 ed ef be 18 7f be be 11 c8 f0 3e
       -0.33406618 -0.46860856 -0.3720634 0.4702764
000010 81 c4 d9 be c1 33 83 3d 70 a2 b6 3e 28 6c 87 3f
       -0.42532733 0.06406356 0.35670805 1.0579882
000020 3b c8 bb be 3b 8d 30 3e e9 d4 96 be e5 53 a6 be
       -0.366762 0.17241375 -0.29459313 -0.3248588
000030 3e 3e 47 3f 65 3f 68 3b 01 72 d2 be 73 75 1e 3f
       0.7782935 0.0035438177 -0.41102603 0.61897963
000040 19 05 27 3f f1 af 6c 3f 7b 94 17 3f 41 10 31 be
       0.65242153 0.92455965 0.5921094 -0.17291357
000050 d0 3c 33 3f 1b 0e 25 3f 2c 3a 4e bf 8c da 15 bf
       0.7001467 0.6447465 -0.80557513 -0.585366
000060 9d a1 ac be 05 9f 39 3f 11 dc d4 be 28 7e 1e bf
       -0.3371705 0.7250827 -0.41574147 -0.6191125
000070 73 dc 4a 3d a2 bd 77 3f dc ab 91 3e 7c a9 37 3f
       0.049526643 0.9677373 0.2845143 0.7174299
000080 36 28 c2 3e 3d bf e5 be c9 fd d7 be 53 2a d4 be
       0.37921304 -0.44872466 -0.4218581 -0.4143854
000090 8b 64 31 3f cd 4e b2 be 50 86 14 3f f1 8e 82 be
       0.6929404 -0.34825745 0.58017445 -0.2549968
0000a0 54 2e 01 bf 2d eb 1b 3e 6d 3e 31 3e 6c c8 e7 be
       -0.50461316 0.15226431 0.1730897 -0.45270097
0000b0 f0 f4 5c bf 87 e4 97 3f cd fa e1 be 33 27 1c bd
       -0.86311245 1.1866616 -0.44136658 -0.03812332
0000c0 a8 32 ce 3c 35 b5 b6 bc d1 ae 12 3f f1 76 a5 3e
       0.02517064 -0.022303203 0.57298 0.32317308
0000d0 69 ca f3 be 56 e8 7d bd b9 a6 ca be 3f 8d 48 bc
       -0.47615364 -0.06198915 -0.39580324 -0.012240707
0000e0 c8 09 c0 be 3a 5b 15 3b 11 0d 7c be 5d df 82 be
       -0.37507463 0.002278997 -0.2461436 -0.25561038
0000f0 81 d8 31 be 65 f8 94 be b7 06 bd be fc 75 07 3f
       -0.17367746 -0.2909576 -0.36919186 0.52914405
000100 48 70 25 3f 65 ac 82 3c c0 9d 5e 3d 89 fc 9e be
       0.6462445 0.015951345 0.05434966 -0.31052044
000110 6c f1 e3 3e 37 24 9e be 59 0d a6 be 3e 05 91 be
       0.44520128 -0.30887005 -0.32432058 -0.28324312
000120 3c 9a 33 bd 13 94 fe 3e db 1e e0 3e 94 55 2e bf
       -0.04384826 0.49722347 0.4377354 -0.6809933
000130 1b 51 2f 3f 41 fb c8 3e 84 b0 e0 3e f2 95 9a be
       0.6848313 0.39254192 0.4388467 -0.30192524
000140 88 5c 03 bf 0d 08 de be 29 95 59 bd e9 c9 15 be
       -0.51313066 -0.43365517 -0.053120766 -0.14627804
000150 73 32 9e bd ff 88 92 bd d5 ca c7 3e 60 af 91 3d
       -0.07724466 -0.07155036 0.39021936 0.07113528
000160 1c 22 b0 3c 1e 3e b7 be 68 94 0c 3f 8b ab 22 bf
       0.02150064 -0.3578958 0.5491395 -0.63543004
000170 a4 62 af be d5 ee e7 3e 5c db 3c bf 20 ba 24 be
       -0.34254944 0.45299402 -0.73772216 -0.16086626
000180 29 8a c0 be 11 0d f4 be f7 49 93 bc c4 a7 d8 be
       -0.37605408 -0.4766622 -0.017979605 -0.42315495
000190 58 1d c3 be 71 6d 68 3e 36 23 f0 3e 21 04 1c be
       -0.38108325 0.22697999 0.46901864 -0.1523595
0001a0 01 5c 9c be 5b c8 9c 3f 39 f8 3f 3f 80 b9 ac be
       -0.30538943 1.2248644 0.7498813 -0.33735275
0001b0 39 fb 74 3d 5a e5 73 bd 0a ce e4 be 2b 8b ac be
       0.059809897 -0.0595449 -0.44688445 -0.33699927
0001c0 bd 96 96 bd c6 f4 bd 3d b8 09 99 bd ec 5a e4 3e
       -0.0735297 0.092752025 -0.07472557 0.44600618
0001d0 da 70 ea be 6c b0 7c bd 91 8c c1 be 77 66 09 bf
       -0.45789224 -0.061691687 -0.37802556 -0.53671974
0001e0 ef 4d a4 3f be f5 84 be cd e3 af 3d b4 6e c1 be
       1.2836283 -0.25968736 0.085883714 -0.37779772
0001f0 9a b9 ef be 39 d4 40 bc 81 7f b5 be c8 7c c6 3e
       -0.4682129 -0.011769348 -0.3544884 0.38767076
000200 9d 7e 30 bf 25 7e 50 3f c9 9e d4 3e 60 82 ce be
       -0.68943197 0.8144248 0.41527393 -0.40333843
000210 5d d9 f8 3e f4 6f c4 be ad fc f0 bc d7 7d ee be
       0.48603335 -0.38366663 -0.02941736 -0.46580383
000220 cb 0c b3 be bd 5c f5 3e 55 95 6e bd 1f f6 fd be
       -0.34970698 0.47922316 -0.058247883 -0.49601838
000230 e0 42 82 3f fd a0 cf be 0b d9 8e 3f 00 95 b7 be
       1.0176659 -0.40552512 1.1159986 -0.35855865
000240 10 91 6c bd 94 5a b1 3c 17 2e 20 bf 88 0e ec 3d
       -0.05775553 0.021649636 -0.6257033 0.11526209
000250 c1 da ee 3e c3 64 af be f6 62 c0 be 4c e4 d0 3e
       0.4665127 -0.34256563 -0.375755 0.40799177
000260 44 ce a2 be d2 f7 e2 be 2c 02 c0 be 09 a5 0d bd
       -0.31797993 -0.44329697 -0.37501657 -0.034581218
000270 1a 71 8f be 83 7f 3c bf 5f 9d bb be aa b7 9e bd
       -0.28015977 -0.7363207 -0.36643502 -0.07749875
000280 ac df fd be b3 4c ae be da 73 a4 be 40 0f b3 bd
       -0.4958471 -0.34042892 -0.32119638 -0.08743143
000290 ae 7a 1f 3f 2b 83 8c be 57 e0 be 3c 33 41 94 3e
       0.6229657 -0.27443823 0.023300333 0.28955993
0002a0 5b f3 05 3f 30 03 1e 3f 67 09 2b be 4b c2 c9 3d
       0.52324456 0.61723614 -0.16702805 0.098515116
0002b0 29 ef a8 be 04 79 aa 3e 9f 92 34 3c d1 4b ec be
       -0.32994965 0.33295453 0.011021285 -0.46151593
0002c0 d6 29 a6 be 92 66 b7 be 16 9c 9a be 3b 33 d6 bd
       -0.32453793 -0.35820442 -0.3019721 -0.1045899
0002d0 d3 e7 fa be 69 86 05 bf ea a4 b3 be b0 2b a5 be
       -0.49004993 -0.5215822 -0.35086757 -0.32259893
0002e0 bf fe 5a bd 88 e3 f9 3e 73 56 5d be 07 a3 52 3f
       -0.0534656 0.48806405 -0.21615009 0.8228001
0002f0 a5 51 2d 3f 8d e3 65 be 19 d4 e7 be 32 25 be bd
       0.67702705 -0.22450085 -0.45279005 -0.09284438
000300 2c fb 79 be 76 36 2b 3f 98 31 09 bf ff c1 2c 3c
       -0.2441222 0.66879976 -0.535913 0.010544299
000310 1d b0 a0 be c7 8e 7a 3f b2 8c 21 3f e7 97 8c be
       -0.31384364 0.9787411 0.6310531 -0.27459642
000320 15 2e be be cb f5 e8 be 8f c9 d4 be 0e e5 e1 3e
       -0.37144533 -0.45500025 -0.41560027 0.44120067
000330 57 eb 36 3f 4a a9 dc be d7 a3 e1 be e0 c4 b8 be
       0.7145285 -0.43097907 -0.44070312 -0.36087704
000340 d8 bc e9 be fd 5a d4 3e aa 2c fe 3e e6 fd bc 3d
       -0.4565189 0.4147567 0.4964345 0.09228115
000350 0e 31 c8 3e 83 ee 8a be be 81 a2 be b6 32 09 bf
       0.39099926 -0.27135095 -0.3173961 -0.53593004
000360 16 42 c3 be bd de f6 3a ca ee c3 be 9b 1e 09 3f
       -0.38136357 0.0018834692 -0.3826812 0.53562325
000370 eb 7b 02 bf 6b d6 b5 be 69 04 5b be 6c c0 24 bf
       -0.50970334 -0.3551515 -0.21388401 -0.6435611
000380 9e 22 d4 be 27 91 15 3e a9 02 37 3f 17 08 f5 3e
       -0.4143266 0.14606152 0.71488434 0.47857735
000390 13 19 df be 44 66 ae be 83 01 a5 3b ff 1d 40 3f
       -0.43573818 -0.34062397 0.0050355806 0.7504577
0003a0 8e 59 47 3f f7 cb 20 3f 34 60 94 3f b5 cf 02 3f
       0.77871025 0.62811226 1.1591859 0.51098186
0003b0 b1 04 85 be f0 60 87 be 4b 1a 0e bf aa 60 3d 3d
       -0.25980142 -0.26441145 -0.5550887 0.046234764
0003c0 98 a5 a6 be fd 1a ed be f0 f3 f8 3e b7 72 7e 3f
       -0.32548213 -0.46309653 0.4862361 0.9939379
0003d0 7c 0d be bd 50 b9 06 be c7 3a fb 3e e4 7d 12 bf
       -0.09279916 -0.13156629 0.4906828 -0.57223344
0003e0 8e a0 0e 3f d4 a2 ca be 99 bd 13 be 2f c0 01 3f
       0.55713737 -0.39577353 -0.14427795 0.50683874
0003f0 1c 53 e8 3e 61 ea cd 3d 70 01 12 3f 5c bc c8 be
       0.45375907 0.1005447 0.57033443 -0.39206207

head.bias f4 [4]
000000 64 81 f3 3d 24 79 12 3e 50 fc 01 3e 98 11 6b 3e
       0.11889914 0.14304024 0.12693906 0.2295593
