LunarLander-project-main/dqn_lunarlander.pth (torch, 279256 bytes, 6 tensors)

backbone.0.weight f4 [256, 8]
0	0xbe5055fb	-0.20345299
1	0xbc51012f	-0.01275663
2	0x3dcfa696	0.101391956
3	0xbd0c6311	-0.034274165
4	0xbd891484	-0.06693366
5	0x3e0cf511	0.1376536
6	0xbde7eae2	-0.11324097
7	0xbdecf997	-0.11571043
8	0x3f0cc2df	0.5498485
9	0xbdd82fe7	-0.10556012
10	0xbe325c79	-0.17418088
11	0xbdf83555	-0.12119547
12	0x3f0f92c3	0.56083316
13	0xbf9d6131	-1.2295285
14	0x3d5e84a6	0.054325722
15	0xbe3aa555	-0.18227132
16	0xbef42e41	-0.4769154
17	0xbe2dabf3	-0.16960125
18	0xbeec62ff	-0.46169278
19	0xbebaaf3d	-0.3646182
20	0x3efc916a	0.49329692
21	0x3dff9e4b	0.12481364
22	0xbfa761b5	-1.3076693
23	0xbdd9f8ea	-0.1064318
24	0x3e86cd45	0.26328483
25	0xbe82cfaf	-0.25549075
26	0x3ecbcd47	0.39805052
27	0xbea719ff	-0.3263702
28	0xbf437bf7	-0.7636103
29	0xbe9331fb	-0.2874907
30	0xbf285701	-0.6575776
31	0xbf6f7e44	-0.9355204
32	0x3edf7a73	0.4364811
33	0xbc91cc75	-0.017797688
34	0xbe7ea38e	-0.24867079
35	0x3da946e7	0.08265477
36	0x3f61119e	0.87917507
37	0x3f51d960	0.8197231
38	0xbfa26fd2	-1.2690375
39	0xbf83be6b	-1.0292486
40	0x3f2b6b46	0.6696056
41	0x3db5905f	0.08865427
42	0x3f0c3ae1	0.5477734
43	0x3e8af20d	0.27137795
44	0xbd5258b3	-0.05135412
45	0x3f23341e	0.637514
46	0xbf741aa3	-0.95353144
47	0xbf360885	-0.7110675
48	0xbc86d373	-0.016458249
49	0xbe7e9497	-0.2486137
50	0x3ed41c75	0.4142796
51	0xbe85b435	-0.2611405
52	0xbf7656bc	-0.96226096
53	0xbdfcc48d	-0.123421766
54	0x3e993621	0.2992411
55	0xbf092c1a	-0.5358292
56	0x3de05c73	0.10955133
57	0x3e3f07dd	0.18655343
58	0xbe310aaa	-0.17289224
59	0xbe87ec3c	-0.2654742
60	0xbe4656ca	-0.19369045
61	0xbef49c3e	-0.47775453
62	0xbddf4d48	-0.10903412
63	0xbd866ea4	-0.06564072
64	0x3d1f16d9	0.03884015
65	0x3e111b91	0.14170672
66	0xbb222b80	-0.0024745166
67	0x3e8d6d21	0.2762232
68	0xbdc030d1	-0.09384311
69	0xbe5ebf24	-0.21752602
70	0xbe8154e0	-0.25260067
71	0x3f201b57	0.6254172
72	0xbf0aadec	-0.54171634
73	0x3d16092f	0.036629852
74	0x3e25c0ec	0.16186875
75	0xbf00c29c	-0.5029695
76	0xbea2f064	-0.31824028
77	0xbf216e7f	-0.6305923
78	0xbe3f5fbd	-0.18688865
79	0x3d84683d	0.064651944
80	0x3c31cf42	0.010852637
81	0x3e70d379	0.2351817
82	0x3f13e636	0.5777315
83	0x3d3dc88d	0.04633384
84	0xbd657644	-0.05602099
85	0x3f1c36eb	0.610213
86	0x3de278b1	0.11058176
87	0xbf2f8e24	-0.68576264
88	0x3f3b39f4	0.73135304
89	0xbe8dd119	-0.2769859
90	0x3f0e1182	0.55495465
91	0x3e3d7f5f	0.1850562
92	0xbf8ea193	-1.1143059
93	0x3bfe9113	0.007768759
94	0xbe9ef0ad	-0.31042996
95	0x3efa9e1a	0.48948747
96	0x3eedce59	0.46446493
97	0xbe017f60	-0.12646246
98	0x3da52811	0.08064283
99	0x3ec9ae85	0.3939096
100	0xbe6316d0	-0.22176671
101	0x3e608424	0.21925408
102	0x3e07c1fe	0.13257596
103	0xbf52bfd1	-0.8232394
104	0x3e0e4bd0	0.13896108
105	0xbd6750c0	-0.056473494
106	0x3f0356cf	0.51304334
107	0xbe81657a	-0.25272733
108	0x3d2d6f95	0.04234274
109	0x3c6dc979	0.014513367
110	0xbe0064e2	-0.12538484
111	0x3ebda0d9	0.3703678
112	0x3d1f4532	0.03888435
113	0x3de68efc	0.11257741
114	0x3cef209c	0.029190354
115	0x3e8edfbe	0.27905077
116	0xbcb0e42b	-0.021593174
117	0x3e3cf0fe	0.18451306
118	0x3ecbc52a	0.39798862
119	0x3ebb093b	0.3653048
120	0xbe506a92	-0.20353153
121	0xbe18213b	-0.14856426
122	0xbf0c8ea3	-0.54905146
123	0xbdda5fbe	-0.106627926
124	0xbea11248	-0.3145926
125	0xbe7846ca	-0.24245754
126	0xbf17296d	-0.59047586
127	0xbfaa1f8f	-1.3290881
128	0x3f281f65	0.65672904
129	0x3df9e7f9	0.122024484
130	0x3ebcb0cc	0.36853635
131	0xbe2f0279	-0.17090787
132	0x3e8bb661	0.27287582
133	0x3d7f635d	0.06235062
134	0x3e6e541b	0.23274271
135	0x3e27f452	0.16401795
136	0x3f0c7dd9	0.5487953
137	0x3e4bcbc3	0.19901948
138	0xbd92d29e	-0.07169078
139	0xbe45c9e6	-0.193153
140	0x3e848d05	0.2588884
141	0xbf4e53df	-0.8059673
142	0xbec25a03	-0.37959298
143	0xbe07e0ae	-0.13269302
144	0xbe50a97e	-0.20377156
145	0xbe5b21b8	-0.21399581
146	0xbd6340c2	-0.05548168
147	0xbe884ec0	-0.2662258
148	0x3e6ca1a6	0.23108539
149	0x3f46471d	0.7745226
150	0x3ecea14c	0.40357435
151	0xbe368e8f	-0.1782782
152	0xbf31224e	-0.6919297
153	0xbd3feeef	-0.046858724
154	0xbf06432e	-0.5244626
155	0xbe0dd850	-0.13852048
156	0xbd143a5b	-0.036188465
157	0x3e7558d6	0.2395967
158	0x3eaa38e1	0.3324652
159	0x3e70f0b5	0.23529322
160	0xbed028e0	-0.40656185
161	0x3e3d8450	0.18507504
162	0xbdf6c3a4	-0.12049034
163	0xbe475661	-0.19466545
164	0xbe61ca83	-0.22049908
165	0x3ed2e5ae	0.41190857
166	0xbdd3ff58	-0.10351437
167	0xbe92aaaf	-0.28645846
168	0xbf5a8666	-0.85361326
169	0xbdbb56cf	-0.09147417
170	0x3da9bca8	0.082879364
171	0xbe12c138	-0.1433152
172	0xbe8a1d86	-0.2697565
173	0x3e9754ee	0.29556984
174	0x3e5f2e28	0.21794951
175	0xbec5cfbd	-0.38635054
176	0x3f8431a7	1.0327653
177	0xbe070d84	-0.1318875
178	0xbec81af3	-0.3908306
179	0x3f1c931e	0.61161983
180	0xbe4ae8ec	-0.19815415
181	0xbe839a82	-0.25703818
182	0x3e0fa82a	0.14028993
183	0x3e813db5	0.2524239
184	0xbe808ddd	-0.25108233
185	0xbdb368d4	-0.08760229
186	0x3e91ac9f	0.28452012
187	0xbefe1efa	-0.49633008
188	0xbe918750	-0.28423548
189	0x3e59ad21	0.2125745
190	0xbdf384ba	-0.1189055
191	0x3da884de	0.082284674
192	0xbba46866	-0.005017328
193	0x3d34c01c	0.044128522
194	0xbe985849	-0.29754856
195	0xbe3a89dc	-0.18216652
196	0xbdea76fa	-0.11448474
197	0xbef5e1d3	-0.48023853
198	0x3e554699	0.20827712
199	0x3e94bdaa	0.29050952
200	0xbe316a2c	-0.17325658
201	0xbf11642e	-0.5679349
202	0xbf68962a	-0.9085413
203	0xbe20d9d3	-0.15708093
204	0x3eacf8c0	0.3378353
205	0xbee9a02c	-0.45630014
206	0xbd4c43e9	-0.04986945
207	0x3f2a2d63	0.66475505
208	0x3f6a8e1c	0.9162309
209	0xbdb5d288	-0.08878046
210	0x3eb3ef71	0.35143617
211	0xbd9a10c6	-0.075227305
212	0x3e2d05de	0.1689677
213	0xbddce1b1	-0.10785235
214	0x3cfece60	0.031104267
215	0x3c019b2c	0.007910531
216	0x3d9b270d	0.07575808
217	0xbd644b1c	-0.055735692
218	0x3e432c24	0.19059807
219	0xbec9052a	-0.39261752
220	0x3e919fc7	0.28442213
221	0xbdf130d1	-0.11776889
222	0xbebc7d89	-0.36814526
223	0x3d046596	0.032323442
224	0xbf1fe4cf	-0.6245851
225	0xbd4e8bd0	-0.050426304
226	0xbd06115f	-0.03273141
227	0xbe867ba1	-0.26266196
228	0xbf21b0c6	-0.6316036
229	0xbf26e52d	-0.65193444
230	0xbd54c925	-0.05194964
231	0x3d244219	0.040102098
232	0x3ebed303	0.37270364
233	0xbe979000	-0.2960205
234	0xbe05d468	-0.13069308
235	0x3e82c9ae	0.25544494
236	0xbf7b99d6	-0.9828161
237	0xbecdb6ef	-0.4017863
238	0xbf7688fb	-0.96302766
239	0x3e232e6f	0.15935682
240	0xbe75fa76	-0.24021325
241	0x3df76e44	0.120815784
242	0xbb5d8ef6	-0.0033807135
243	0x3cf54707	0.029941095
244	0xbe9987fe	-0.29986566
245	0xbeff31d8	-0.49842715
246	0xbf97dc2f	-1.186407
247	0xbed5add6	-0.4173419
248	0x3e2b2134	0.16711885
249	0x3df955d4	0.121745735
250	0xbd8b3251	-0.067967065
251	0xbe5f66ad	-0.21816511
252	0x3db0b775	0.08628742
253	0x3ebdacc3	0.3704587
254	0x3ec2b5b3	0.3802925
255	0xbe95ea05	-0.29280105

backbone.0.bias f4 [256]
0	0x3e17f5cb	0.14839856
1	0x3c30bbb4	0.010786939
2	0x3d8989c9	0.067157336
3	0xbe7e76fe	-0.2485008
4	0x3d59e52c	0.05319707
5	0xbdedbc81	-0.1160822
6	0xbe0faffa	-0.14031973
7	0x3dd7347a	0.10508056
8	0x3e20d23b	0.15705197
9	0xbe30e01d	-0.17272992
10	0x3e8a090b	0.26960024
11	0xbda317c6	-0.07963519
12	0x3e541d1f	0.20714234
13	0x3dee25dd	0.116283156
14	0x3e395311	0.18098094
15	0x3e9b7b99	0.30367735
16	0x3dcbd44d	0.099526025
17	0x3ddbf947	0.10740905
18	0xbe1f5a88	-0.15561879
19	0xbd83b57a	-0.06431098
20	0xbaaefa4d	-0.0013349742
21	0xbdf8833b	-0.12134405
22	0xbea0d4ef	-0.31412455
23	0xbda0e7fc	-0.078567475
24	0xbd1ef7ea	-0.038810648
25	0x3dca54e7	0.09879475
26	0xbc58d40e	-0.0132341515
27	0x3d58b75a	0.052909233
28	0x3c5b0c26	0.013369596
29	0x3ddb04ee	0.106943
30	0x3dd598c5	0.10429529
31	0x3d0bdc5d	0.0341457
32	0x3e64fc5f	0.22361897
33	0x3e9f4fff	0.3111572
34	0x3d24c832	0.040229984
35	0x3e1a930f	0.15095161
36	0x3dfe6d40	0.124231815
37	0x3e5712db	0.21003287
38	0x3e5cab83	0.21549802
39	0x3ed77b7d	0.42086402
40	0x3e1bcad6	0.15214095
41	0xbea1b6a6	-0.31584662
42	0x3cc683e4	0.024232812
43	0xbf5e1cb0	-0.86762524
44	0xbe1c7dcd	-0.15282364
45	0xbed6ca80	-0.4195137
46	0xbe15a244	-0.1461268
47	0xbe1f95bd	-0.15584464
48	0xbe881c10	-0.2658391
49	0x3e8da59c	0.27665412
50	0xbcff91f4	-0.031197526
51	0x3e4b7576	0.19869027
52	0x3d1df8f6	0.038567506
53	0xbd42a018	-0.04751596
54	0xbd0b9016	-0.034072958
55	0x3e04ead6	0.12980208
56	0x3e7a864f	0.24465297
57	0x3d77a414	0.06045921
58	0xbca5618b	-0.020188114
59	0xbe9fb0e1	-0.31189635
60	0x3e4f0851	0.20218016
61	0x3dad4369	0.08460123
62	0xbda6b4a5	-0.08139924
63	0xbdb39397	-0.08768385
64	0xbe157dfc	-0.1459884
65	0xb9dc548b	-0.0004202466
66	0xbe33b41f	-0.1754918
67	0x3e5a9571	0.2134607
68	0x3e5e7500	0.2172432
69	0x3dbf752e	0.09348522
70	0xbe537370	-0.20649505
71	0xbd1562dc	-0.036471233
72	0xbe694846	-0.22781476
73	0x3de80055	0.11328188
74	0x3e87e709	0.26543453
75	0x3cf38f6d	0.029731477
76	0xbd1d36f8	-0.0383825
77	0xbdcacc11	-0.09902204
78	0xbeb81019	-0.35949782
79	0xbdc8927c	-0.09793565
80	0xbc858174	-0.01629708
81	0x3df4fa83	0.11961844
82	0x3cf93422	0.030420367
83	0x3e70f36a	0.23530355
84	0xbe762ba6	-0.24040088
85	0x3e385d52	0.18004349
86	0x3e4a4d80	0.19756126
87	0xbd9dd879	-0.077073045
88	0xbde2a4ee	-0.11066614
89	0x3e3f28ae	0.18667862
90	0x3e27c9dc	0.16385597
91	0xbda76f92	-0.08175577
92	0xbd4a4d36	-0.04939004
93	0x3dddfb9e	0.10839008
94	0x3e8bca34	0.27302706
95	0xbe551d75	-0.20812018
96	0xbd0bedcf	-0.03416234
97	0x3d8d56d9	0.069013305
98	0xbde6029a	-0.11230965
99	0xbca9f7a5	-0.020747969
100	0x3d8ca101	0.068666466
101	0xbe882753	-0.26592502
102	0xbe0c6a28	-0.1371237
103	0xbe610fe8	-0.21978724
104	0xbe83c4ea	-0.2573617
105	0xbe3d60e0	-0.18493986
106	0x3d9d3a69	0.076771565
107	0xbc51c2d5	-0.012802799
108	0x3e29fb7a	0.16599837
109	0x3e81a00c	0.2531742
110	0x3e22a9ee	0.15885136
111	0x3e69b3ca	0.2282249
112	0x3eb3d545	0.3512365
113	0xbd2beeb7	-0.041975703
114	0x3e41694f	0.18887828
115	0xbda9742d	-0.08274112
116	0x3c34ea6c	0.011042219
117	0xbde73be5	-0.11290721
118	0x3df29728	0.11845237
119	0x3e671ee6	0.2257038
120	0xbbd96b68	-0.0066351183
121	0x3e5a5b4a	0.21323887
122	0x3c74bda9	0.014937797
123	0xbdc9ab2c	-0.098471016
124	0xbe220f7e	-0.15826222
125	0x3e21b50c	0.1579172
126	0x3cfaf58c	0.030634664
127	0xbd067891	-0.032829825
128	0x3ce9cf6e	0.028541293
129	0x3d994f8b	0.07485875
130	0x3f109599	0.5647827
131	0x3ca91d15	0.02064375
132	0x3e297e46	0.16552076
133	0xbd2c6b33	-0.04209442
134	0xbd2cbc33	-0.04217167
135	0xbd26c6d4	-0.04071696
136	0x3e24cf20	0.16094637
137	0xbe581b87	-0.21104251
138	0x3d35c430	0.044376552
139	0xbdb0b61d	-0.08628485
140	0x3e34b927	0.17648755
141	0x3e2439b3	0.16037636
142	0x3e12c689	0.14333548
143	0xb8ef57b8	-0.00011412747
144	0x3e022a4c	0.12711447
145	0x3b8eef00	0.004361987
146	0xbd36ff1f	-0.044676896
147	0x3b85861c	0.004074825
148	0x3e6a7801	0.2289734
149	0xbe82bc60	-0.25534344
150	0x3dac5dce	0.08416329
151	0xbafb3de6	-0.0019168227
152	0x3e8bc1fc	0.27296436
153	0xbb54d179	-0.0032473488
154	0xbe5d29c9	-0.21597971
155	0x3dec75e9	0.11545927
156	0xbdbec092	-0.093140736
157	0xbe92f6da	-0.28703958
158	0x3c2f33e1	0.010693521
159	0xbebb87b8	-0.36626983
160	0xbd2278e6	-0.03966608
161	0xbc8c1626	-0.017100405
162	0x3e40cdd0	0.18828511
163	0x3e05479c	0.13015598
164	0x3deb59c2	0.11491729
165	0x3dd11023	0.10208156
166	0xbdeb46cd	-0.114881136
167	0xbbcd40f6	-0.0062638475
168	0x3e44dbc4	0.19224459
169	0x3c8a936d	0.016916001
170	0x3a89329a	0.0010467351
171	0xbca048ed	-0.019566024
172	0xbd7ac155	-0.061219532
173	0x3e98e596	0.2986266
174	0x3e26b9a6	0.16281757
175	0xbd23c9f7	-0.03998753
176	0x3ec1693d	0.37775603
177	0x3d1e5a88	0.038660556
178	0x3e430840	0.19046116
179	0xbe79c359	-0.24390925
180	0xbec3a458	-0.38211322
181	0xbe84e352	-0.25954682
182	0x3cce1522	0.025156561
183	0xbb041f5b	-0.002016029
184	0x3ce4844f	0.02789512
185	0x3ec1acc3	0.3782712
186	0x3d9edb98	0.07756728
187	0x3e20a137	0.15686499
188	0x3e9c5488	0.30533242
189	0x3e00e10b	0.12585847
190	0x3e5a112a	0.2129561
191	0xbd2fa4da	-0.042881824
192	0xbc357a5f	-0.011076539
193	0x3e032a07	0.12809001
194	0x3ddf3ee9	0.10900671
195	0x3d772579	0.06033847
196	0x3e40a6f4	0.18813688
197	0x3e79c082	0.24389842
198	0x3e0baf78	0.13641155
199	0xbcef41e1	-0.029206218
200	0x3c302c4f	0.0107527515
201	0x3d914dc9	0.070949145
202	0x3d568533	0.052373122
203	0x3eb12f6d	0.34606495
204	0x3da7de3a	0.08196683
205	0xbd34a5d7	-0.04410347
206	0x3ef577c6	0.47942942
207	0xbe379ff5	-0.17932113
208	0x3e696d00	0.22795486
209	0x3d50b236	0.050951205
210	0x3cb93ac4	0.02261103
211	0xbe8e511e	-0.27796263
212	0xbdcbec01	-0.099571235
213	0x3d28f692	0.041250773
214	0x3e0a06dc	0.13479179
215	0x3e2f7061	0.17132713
216	0x3e13e4e9	0.14442791
217	0xbd16318b	-0.03666834
218	0x3e319ad6	0.17344221
219	0x3f2a70ad	0.6657818
220	0xbe8527df	-0.26006982
221	0xbe39bcd4	-0.18138438
222	0xbe18a22f	-0.14905618
223	0x3df9c0f1	0.12195004
224	0xbf56cefb	-0.8390958
225	0x3e27cab0	0.16385913
226	0xbe8026f0	-0.25029707
227	0x3cc6d6d3	0.024272358
228	0x3e0d055f	0.1377158
229	0x3de3d7fb	0.111251794
230	0x3db03c32	0.08605231
231	0x3da20b9e	0.07912372
232	0x3d2de6c6	0.04245641
233	0xbb81f616	-0.0039661033
234	0x3dc8655a	0.09784956
235	0x3dc2a5f3	0.095043086
236	0x3e33c799	0.17556609
237	0x3e45cbce	0.19316027
238	0x3e0b5163	0.13605265
239	0x3b0cb386	0.002146931
240	0x3e1bb24a	0.1520473
241	0xbe9d3eb0	-0.3071189
242	0x3dfc4265	0.12317351
243	0x3dc5a786	0.09651093
244	0xbd279e11	-0.04092223
245	0x3e3a4f6a	0.18194357
246	0xbccb2adb	-0.024800709
247	0x3e40b119	0.18817557
248	0xbe0e0d2f	-0.13872217
249	0xbe203331	-0.15644528
250	0x3e9910a5	0.2989551
251	0x3bee6416	0.007275115
252	0x3d4fe9ce	0.050760083
253	0xbe49b3a1	-0.19697429
254	0x3dc5274c	0.09626636
255	0xbe6b40f8	-0.22974002

backbone.2.weight f4 [256, 256]
0	0xbe15ce72	-0.14629534
1	0xbdabf4af	-0.08396279
2	0x3f347e64	0.70505357
3	0xbdbf42a6	-0.09338884
4	0x3ef268bf	0.4734554
5	0xbed880e8	-0.42285848
6	0x3dee7851	0.11644042
7	0xbe1ca49e	-0.15297171
8	0x3c80f879	0.015743481
9	0x3e99b11e	0.30017942
10	0xbc849241	-0.01618302
11	0x3d16a101	0.03677464
12	0x3e81a22d	0.25319043
13	0xbde152da	-0.11002131
14	0x3e8c3091	0.27380803
15	0x3e348cfa	0.17631903
16	0xbf016da5	-0.5055793
17	0xbef276d2	-0.47356278
18	0x3e8610c1	0.26184657
19	0x3d1fd766	0.03902378
20	0xbc513891	-0.012769834
21	0x3e923859	0.28558615
22	0xbe16c0de	-0.1472201
23	0x3e1e2eb7	0.15447508
24	0xbbf7c724	-0.007561581
25	0xbea6f923	-0.3261195
26	0x3ef6258c	0.4807552
27	0xbe18f2f2	-0.14936426
28	0xbbe1079a	-0.0068673613
29	0xbf452f6a	-0.77025473
30	0xbd568d74	-0.052380994
31	0xbe1fb083	-0.15594678
32	0xbd9d1697	-0.07670324
33	0x3e879bea	0.2648614
34	0xbc483e9e	-0.01222196
35	0x3e94a91e	0.29035276
36	0xbcd1546a	-0.025552947
37	0xbd308d05	-0.043103237
38	0x3f03c50d	0.5147255
39	0x3e6f8a07	0.23392497
40	0x3f097d01	0.53706366
41	0x3e681984	0.22665983
42	0x3ef6c90b	0.4820026
43	0x3f1a9a91	0.603921
44	0x3f3a7462	0.72833836
45	0xbfdbef90	-1.7182484
46	0x3ec61f06	0.38695544
47	0xbd28f086	-0.041245006
48	0x3f0b729c	0.54471755
49	0xbe013944	-0.12619501
50	0xbe1d3c25	-0.15354975
51	0x3e13b8ac	0.14425915
52	0xbf17fd0f	-0.5937051
53	0xbe2c1145	-0.16803463
54	0xbe853613	-0.26017818
55	0x3d84a681	0.064770706
56	0x3de01d8e	0.10943137
57	0x3f0b4bc0	0.5441246
58	0xbde6335e	-0.11240266
59	0x3ebc9ccc	0.36838377
60	0x3ae13507	0.0017181941
61	0xbe972618	-0.2952125
62	0xbf14a2fe	-0.58061206
63	0x3f10a02f	0.5649442
64	0x3eee66c0	0.46562767
65	0xbe767f90	-0.24072099
66	0x3e11bcdf	0.14232205
67	0xbe0292a1	-0.12751247
68	0xbded63b5	-0.11591283
69	0x3b14c0d8	0.0022697952
70	0x3d44f8cf	0.048088845
71	0xbd856473	-0.065133
72	0x3f350d92	0.7072383
73	0xbf71dead	-0.944804
74	0xbed51a6b	-0.41621718
75	0x3e73b820	0.23800707
76	0xbdadaf80	-0.084807396
77	0xbe43d63e	-0.19124696
78	0x3eb48d5e	0.35264105
79	0xbe86c502	-0.2632218
80	0x3ef2eb79	0.47445276
81	0xbe820f9d	-0.25402537
82	0xbef5624b	-0.47926554
83	0x3da0f303	0.07858851
84	0xbdd36ad9	-0.10323114
85	0x3e2ef843	0.17086892
86	0xbe35142e	-0.17683479
87	0xbfbfd13d	-1.498573
88	0xbf08f62f	-0.53500646
89	0xbe1cc4bb	-0.15309422
90	0xbe238b4c	-0.15971106
91	0x3eba4ccd	0.3638672
92	0xbe167da0	-0.1469636
93	0xbea53ca5	-0.3227283
94	0x3eda6648	0.4265616
95	0x3ed52ff3	0.41638145
96	0xbe61a3f4	-0.220352
97	0xbddeabff	-0.108726494
98	0xbeb809c5	-0.35944954
99	0x3eb902ab	0.36134848
100	0xbcd99c2f	-0.026563732
101	0x3ea04b96	0.31307667
102	0x3e3bfdfe	0.18358609
103	0x3e46ddaf	0.19420503
104	0x3ebbae8d	0.3665661
105	0x3ecbd2fa	0.398094
106	0x3ea43120	0.3206873
107	0xbfd73251	-1.681223
108	0x3eae9c72	0.34103733
109	0xbc277673	-0.010221112
110	0xbd88f5f0	-0.06687534
111	0x3e7f0dc9	0.24907602
112	0x3e327130	0.1742599
113	0x3ec3aca9	0.38217667
114	0x3e6ba898	0.23013532
115	0xbef67c9f	-0.48141953
116	0xbfd4a15d	-1.6611744
117	0xbcc285a6	-0.02374537
118	0x3e7cd59e	0.24690863
119	0x3d98fbce	0.07469903
120	0x3f08ab50	0.533864
121	0x3d59c057	0.053161945
122	0xbc88b693	-0.01668862
123	0x3ece0900	0.4024124
124	0xbd0346e5	-0.032050032
125	0xbe5536d8	-0.20821702
126	0x3ea96344	0.33083546
127	0x3d322acb	0.04349784
128	0x3e70cf67	0.23516618
129	0x3c8115b6	0.015757423
130	0xbe8d68cc	-0.27619016
131	0xbe820f42	-0.25402266
132	0xbd7d7f9d	-0.06188928
133	0x3e22bf04	0.15893179
134	0xbef4a5ff	-0.47782895
135	0x3eaa445c	0.3325528
136	0x3efdeaf6	0.49593323
137	0x3e2cf0c4	0.1688872
138	0x3e796ecb	0.2435867
139	0x3e5f65c0	0.21816158
140	0x3d02a894	0.03189905
141	0x3ea941db	0.33058056
142	0x3de121a4	0.109927446
143	0x3ecd3731	0.4008117
144	0xbe71fdd1	-0.2363198
145	0x3c984f59	0.018592523
146	0x3e00f044	0.12591654
147	0xbf2b3808	-0.6688237
148	0x3ea11eed	0.31468907
149	0x3f124c99	0.5714813
150	0x3eb3864a	0.35063392
151	0x3dd92bd4	0.10604063
152	0x3cb7d0a2	0.022438351
153	0xbf007db2	-0.50191796
154	0x3ddfb168	0.109225094
155	0x3e12dd3f	0.14342211
156	0x3cb8ae0e	0.022543933
157	0x3e9a8216	0.30177373
158	0x3c641e7e	0.0139232855
159	0x3eea4939	0.4575899
160	0xbde5e033	-0.11224403
161	0x3e4a318d	0.19745465
162	0x3edf9f0d	0.43676034
163	0x3dca2907	0.098711066
164	0x3ecca9a8	0.39973187
165	0x3f02a2f3	0.5102989
166	0xbe09a553	-0.13441972
167	0xbea39412	-0.31948906
168	0xbe0f5d7a	-0.14000502
169	0xbe1091c3	-0.14118104
170	0x3ec25c97	0.37961265
171	0xbf0e57f3	-0.5560295
172	0x3e106e73	0.14104633
173	0x3e79b750	0.24386334
174	0xbe0a76dd	-0.13521905
175	0x3e657ec0	0.22411633
176	0xbf04a03f	-0.51807016
177	0xbe218986	-0.15775117
178	0x3e13fca3	0.14451842
179	0x3f00febd	0.503887
180	0x3f4459ef	0.7669973
181	0x3e1906d3	0.1494401
182	0xbdce68bc	-0.1007857
183	0x3dd98e89	0.106228895
184	0x3d4108a4	0.04712738
185	0xbca659c4	-0.020306475
186	0xbd8d90d7	-0.06912392
187	0x3e8530e7	0.26013872
188	0x3ec6f6c4	0.38860142
189	0xbe836b2a	-0.25667697
190	0xbd815642	-0.063152805
191	0xbd451cb2	-0.04812307
192	0xbe9cccec	-0.30625093
193	0xbd14a59e	-0.036290757
194	0xbcf35f94	-0.029708661
195	0xbd83504f	-0.06411802
196	0x3e14d5d2	0.14534691
197	0x3dff2abc	0.12459323
198	0x3e40643c	0.18788236
199	0xbd73aafa	-0.059489228
200	0xbedc3dcf	-0.43015906
201	0x3f265b6b	0.6498324
202	0xbec4870c	-0.38384283
203	0x3dfdb228	0.12387496
204	0x3bcac213	0.006187686
205	0x3e2a245f	0.16615437
206	0xbbbda67f	-0.00578767
207	0x3eed288a	0.4631999
208	0xbe6291e2	-0.22125962
209	0xbd193175	-0.03740068
210	0xbe5cd512	-0.21565655
211	0x3d9bf443	0.076149486
212	0xbeb44132	-0.3520599
213	0xbe090a1b	-0.13382761
214	0x3eac359f	0.3363466
215	0xbcb4cfc0	-0.02207172
216	0x3ecaccf7	0.396095
217	0x3dcc3315	0.099706806
218	0x3c8d32a4	0.017236061
219	0xbda1e4c7	-0.07904964
220	0xbf507f61	-0.81444365
221	0x3e5cc687	0.21560107
222	0xbf3643a7	-0.7119698
223	0x3eb84ce3	0.3599616
224	0x3f5248ee	0.8214253
225	0xbe47d724	-0.19515663
226	0x3d78a34a	0.0607026
227	0x3e2f6765	0.17129286
228	0xbdea449c	-0.114388674
229	0xbc3cb0c4	-0.011516754
230	0x3dd90e02	0.10598375
231	0xbe3d2c06	-0.18473825
232	0xbd55172c	-0.05202405
233	0xbed40b72	-0.41414982
234	0x3ef31311	0.47475484
235	0x3edc921c	0.43080223
236	0x3d851d06	0.064996764
237	0x3d4124c7	0.047154214
238	0x3df439fc	0.11925122
239	0x3e0414f4	0.12898618
240	0xbd2daa4e	-0.042398743
241	0x3e89e63c	0.26933467
242	0x3e448387	0.19190799
243	0x3e6ae8bd	0.22940345
244	0xbe9fc6a1	-0.3120623
245	0xbebda613	-0.37040767
246	0xbf9083d5	-1.1290232
247	0x3b71c0be	0.0036888565
248	0x3e78b3c8	0.24287331
249	0x3ebddfe2	0.37084872
250	0x3e98fe24	0.29881394
251	0x3e3033e7	0.17207299
252	0xbdc31a37	-0.095264845
253	0x3f0a5be4	0.54046464
254	0x3e8fb010	0.28064013
255	0x3f691e5f	0.9106197

backbone.2.bias f4 [256]
0	0xbe11660b	-0.14199083
1	0x3d01c0ab	0.031677883
2	0xbe8202f9	-0.25392893
3	0x3e1b33b5	0.15156443
4	0xbe229f53	-0.1588109
5	0xbd0e00c8	-0.034668714
6	0x3dd5b890	0.10435593
7	0x3eb93c5a	0.36178857
8	0xbd3338f0	-0.04375547
9	0xbc9b0e8a	-0.018927831
10	0x3cf7a80e	0.030231502
11	0xbf13639e	-0.5757388
12	0x3e8dc3d2	0.27688462
13	0xbd3a0275	-0.0454125
14	0x3d3bb8e6	0.04583063
15	0x3d53b096	0.051682077
16	0xbd55fb8d	-0.05224185
17	0xbe5d8ae7	-0.21635018
18	0x3dafeac2	0.085896984
19	0xbd591192	-0.052995272
20	0xbe80a69a	-0.25127107
21	0xbef3c32a	-0.47609836
22	0xbead6c65	-0.3387176
23	0x3d0732f7	0.03300759
24	0xbe7df5b5	-0.24800761
25	0x3e29e115	0.16589768
26	0x3d87e447	0.06635337
27	0xbec9a62f	-0.393846
28	0xbd28e727	-0.04123607
29	0x3e7c3aa4	0.24631745
30	0x3eabe9cd	0.33576813
31	0x3e754428	0.23951781
32	0x3e58518d	0.21124859
33	0xbd7a41ce	-0.061097912
34	0xbdc7646c	-0.09735951
35	0xbe9204dd	-0.28519335
36	0x3e1bf7fc	0.15231317
37	0xbf0555d9	-0.5208412
38	0xbd029623	-0.031881463
39	0xbea52764	-0.32256615
40	0xbe835351	-0.25649503
41	0xbce4aada	-0.0279135
42	0x3ced3ca2	0.028959576
43	0xbec6ad47	-0.38804075
44	0x3db4f144	0.0883508
45	0x3eb91bf1	0.3615413
46	0xbf3186c6	-0.6934627
47	0xbd4ec18a	-0.050477542
48	0xbc0c206d	-0.008552653
49	0xbd3cf32f	-0.046130355
50	0x3e4f4e42	0.20244697
51	0x3e9414da	0.28922158
52	0xbeeaf8be	-0.458929
53	0x3e48f053	0.19622926
54	0xbf1e420e	-0.6181954
55	0xbd63dd38	-0.055630893
56	0xbe04cd92	-0.12969044
57	0xbcb3d4ae	-0.021952
58	0xbe498faa	-0.1968371
59	0xbe9edbb3	-0.31026992
60	0x3c437096	0.011928698
61	0xbeaaa3a9	-0.33327988
62	0x3d006735	0.031348426
63	0xbe2f71d0	-0.1713326
64	0x3e752fea	0.23944059
65	0xbd16d364	-0.03682269
66	0xbc853eb8	-0.016265258
67	0xbe8f3130	-0.27967215
68	0x3e2cd489	0.1687795
69	0xbdab07e2	-0.08351113
70	0xbecdfad3	-0.40230426
71	0xbee088d4	-0.43854392
72	0xbd875869	-0.0660866
73	0x3ede4662	0.43413073
74	0x3e37ca27	0.17948209
75	0xbd1a3d3e	-0.03765606
76	0x3e9f1dc6	0.31077403
77	0x3eab5179	0.33460596
78	0x3da797e0	0.08183265
79	0xbea59eba	-0.3234766
80	0xbeaca41d	-0.33718958
81	0x3dbc51eb	0.09195312
82	0xbc294fd9	-0.010333979
83	0xbedbacf1	-0.4290538
84	0x3e806579	0.25077417
85	0xbcf1b88d	-0.029506946
86	0x3e90ffdf	0.28320214
87	0xbc5fa22f	-0.013649507
88	0xbe4e60b7	-0.20154081
89	0xbe188bf0	-0.14897132
90	0x3e1c129d	0.15241475
91	0x3dc5dc68	0.0966118
92	0x3e4a5d3c	0.19762129
93	0x3d4256fd	0.04744624
94	0xbda1470e	-0.07874881
95	0x3ea75deb	0.3268884
96	0xbdb4aa61	-0.0882156
97	0xbe901e0c	-0.28147924
98	0xbd85f8c4	-0.06541589
99	0xbd70a352	-0.058749504
100	0xbee74d8a	-0.45176345
101	0xbd5491d6	-0.051896892
102	0xbdc917d8	-0.09819001
103	0xbdef12a6	-0.11673479
104	0xbe99ccf8	-0.3003919
105	0x3ea77c4b	0.32712016
106	0x3da63440	0.08115435
107	0xbd4dc627	-0.0502378
108	0xbca18199	-0.019715117
109	0xbf13a8a9	-0.5767923
110	0xbebb62a4	-0.36598694
111	0xbde617aa	-0.11234982
112	0xbcbb60aa	-0.022873241
113	0xbd3d49e5	-0.04621305
114	0xbd0be4bd	-0.03415369
115	0x3e2c1375	0.16804297
116	0xbe8c7672	-0.27434117
117	0xbde93485	-0.113869704
118	0xbe04be8b	-0.12963311
119	0xbede42ab	-0.4341024
120	0xbe863945	-0.26215568
121	0xbd94c7c2	-0.07264663
122	0xbd296b64	-0.04136218
123	0x3e35cfa7	0.17754994
124	0xbe8c2b6d	-0.2737688
125	0xbd0b39b3	-0.033990573
126	0xbdf734c9	-0.12070615
127	0x3ea91449	0.3302329
128	0xbb8a6ec8	-0.004224632
129	0xbe05f307	-0.13080989
130	0xbe0ab7f5	-0.13546737
131	0xbdc846ce	-0.0977913
132	0x3e2d11ba	0.16901293
133	0x3e3e0f03	0.18560414
134	0xbc3ebb16	-0.011641284
135	0xbda2e9b3	-0.07954731
136	0xbc5c8391	-0.013459102
137	0x3e8795bc	0.26481426
138	0x3eef4116	0.46729344
139	0xbe3df4fc	-0.18550485
140	0x3e9a49ed	0.30134526
141	0xbe701209	-0.2344438
142	0x3edebdab	0.4350408
143	0xbe93409d	-0.28760234
144	0xbcf6dc25	-0.03013427
145	0xbb84485d	-0.0040369467
146	0xbe95eb88	-0.2928126
147	0xbd189727	-0.037253525
148	0x3eb5e71a	0.3552788
149	0xbe8a84ee	-0.27054542
150	0xbeb2495a	-0.34821588
151	0x3df306e8	0.11866552
152	0xbc74f2b3	-0.014950442
153	0x3c51afbb	0.012798245
154	0xbf360d3b	-0.7111394
155	0xbd1a6995	-0.037698347
156	0xbd8f72c6	-0.07004313
157	0xbeb86024	-0.3601085
158	0x3ddd40d4	0.108033806
159	0xbd3b2653	-0.045690846
160	0x3c74321e	0.014904527
161	0x3e882789	0.26592663
162	0xbd580b96	-0.052745424
163	0x3e86d834	0.26336825
164	0x3d00379d	0.031303037
165	0xbdbb1290	-0.091344
166	0xbd910dc1	-0.070827015
167	0x3e18b673	0.14913349
168	0x3d772e86	0.060347103
169	0x3ea498fa	0.32147962
170	0xbe28eeb4	-0.16497308
171	0xbca9a2fe	-0.020707604
172	0xbe9239aa	-0.2855962
173	0x3e70f9c1	0.23532774
174	0xbd1fd2d5	-0.039019424
175	0xbed0a37e	-0.40749735
176	0xbb9c3699	-0.0047672507
177	0xbe870ae0	-0.26375484
178	0xbe50b312	-0.2038081
179	0x3ea78c87	0.327244
180	0xbe9a5021	-0.30139259
181	0xbec86786	-0.39141482
182	0xbd2ecee0	-0.04267776
183	0xbe76fff1	-0.24121071
184	0xbd1b74dd	-0.037953246
185	0x3e88507d	0.26623908
186	0xbe3c104f	-0.18365596
187	0x3ebe4fb9	0.371702
188	0xbdb96c10	-0.090538144
189	0xbccb5dae	-0.024824943
190	0x3e81f9f3	0.2538601
191	0x3dc73dfb	0.09728619
192	0x3a848d56	0.0010112922
193	0x3e88dad9	0.26729468
194	0xbdb883e9	-0.09009535
195	0x3e02eaf8	0.12784946
196	0xbcd0b10d	-0.02547505
197	0x3ed4c666	0.41557616
198	0x3d8f1359	0.06986112
199	0xbe537b57	-0.20652519
200	0xbed1554b	-0.40885386
201	0xbeabc7ac	-0.33550775
202	0xbe8671ed	-0.26258793
203	0x3cdc7f8d	0.02691629
204	0x3eab6def	0.3348231
205	0xbcd756cf	-0.02628651
206	0xbcb31a3c	-0.021863095
207	0xbeee106d	-0.46496907
208	0xbe215f81	-0.15759088
209	0x3d59d1ea	0.053178705
210	0x3ea3d0ce	0.31995243
211	0xbca7cf9b	-0.020484736
212	0x3e9773f8	0.29580665
213	0x3ccbfc46	0.024900567
214	0xbeb18a87	-0.34676
215	0x3dd42962	0.10359456
216	0xbeb197e4	-0.34686196
217	0xbc49c601	-0.012315274
218	0xbdad3b67	-0.08458596
219	0x3eb9e0cd	0.36304322
220	0x3d447270	0.0479607
221	0xbcfcc026	-0.030853342
222	0xbe986cec	-0.297706
223	0xbea5025c	-0.32228363
224	0x3cfbf1db	0.030754974
225	0xbca547b0	-0.020175785
226	0x3eb5547e	0.35416025
227	0xbca097b1	-0.019603582
228	0xbd6bbd5f	-0.057553645
229	0x3e8e7106	0.27820605
230	0xbdea2297	-0.11432379
231	0x3f38b248	0.72147036
232	0x3d0e9645	0.034811277
233	0xbe14d228	-0.14533293
234	0xbecdf59e	-0.40226454
235	0x3dcb61a3	0.09930732
236	0x3f03e9d7	0.51528686
237	0xbe538e28	-0.20659697
238	0x3dac9536	0.08426897
239	0xbd0c8cd6	-0.034314
240	0xbe9b1bc2	-0.30294615
241	0xbe31338e	-0.17304823
242	0x3ea16e94	0.31529677
243	0x3d1f255e	0.038853996
244	0xbd65ec7b	-0.05613373
245	0x3ccafa84	0.024777658
246	0x3e4be2a9	0.19910683
247	0x3e2a43d0	0.16627431
248	0x3e98cef6	0.298454
249	0x3dc8086f	0.097672336
250	0xbce3c3ca	-0.02780332
251	0x3d71e8b6	0.05905982
252	0x3ebe9dfc	0.37229908
253	0xbcf97eee	-0.030456033
254	0x3e8b6a14	0.2722937
255	0xbd1cb5f6	-0.03825947

head.weight f4 [4, 256]
0	0xbe914573	-0.28373298
1	0xbee85c40	-0.4538288
2	0xbf06066a	-0.5235354
3	0x3ebcd8f5	0.36884275
4	0xbef9f5a5	-0.48820224
5	0x3d8333c1	0.06406356
6	0x3efa3e29	0.4887555
7	0x3fc40b91	1.531603
8	0xbe0cf353	-0.13764696
9	0x3e308d3b	0.17241375
10	0xbd4730a2	-0.048630364
11	0xbf21d4ac	-0.63215137
12	0x3f902e0e	1.1264055
13	0x3b683f65	0.0035438177
14	0xbe910870	-0.2832675
15	0x3f453f95	0.77050143
16	0x3f2df23c	0.67947745
17	0x3f9e968f	1.2389697
18	0x3f1c71a2	0.6111089
19	0xbe311041	-0.17291357
20	0x3f6b84ba	0.919994
21	0x3f5ef14a	0.8708693
22	0xbf9c4eef	-1.2211589
23	0xbf282e75	-0.6569589
24	0xbef5530f	-0.4791493
25	0x3f9696f1	1.1764814
26	0xbe8b44e2	-0.2720099
27	0xbfad1964	-1.3523374
28	0x3d4adc73	0.049526643
29	0x3fc65702	1.5495303
30	0x3eb6225f	0.35573098
31	0x3f311398	0.6917052
32	0x3eff6c31	0.4988723
33	0xbead5100	-0.3385086
34	0xbedc75ef	-0.43058726
35	0xbf2252e3	-0.63407725
36	0x3f3b5480	0.7317581
37	0xbf0002a1	-0.5000401
38	0x3f1666f2	0.5875083
39	0xbeec7d17	-0.46189186
40	0xbf0fc060	-0.56152916
41	0x3e1beb2d	0.15226431
42	0x3f1df228	0.61697626
43	0xbf1ed168	-0.6203828
44	0xbf59c967	-0.8507294
45	0x3f9db62a	1.2321217
46	0xbf47f4bb	-0.78107804
47	0xbd1c2733	-0.03812332
48	0x3cce32a8	0.02517064
49	0xbcb6b535	-0.022303203
50	0x3f1f441c	0.622133
51	0x3ebacf5d	0.3648633
52	0xbf412c6f	-0.75458425
53	0xbcb7a223	-0.02241618
54	0xbf0f0b50	-0.55876637
55	0xbc488d3f	-0.012240707
56	0xbecf0750	-0.40435266
57	0x3b155b3a	0.002278997
58	0xbe3bf3ce	-0.18354723
59	0xbe19cb43	-0.15018944
60	0xbede9aa4	-0.43477356
61	0xbf136507	-0.5757603
62	0xbf0fc22f	-0.56155676
63	0x3f3c9114	0.7365887
64	0x3ef788ff	0.48346707
65	0x3c82ac65	0.015951345
66	0x3d5e9dc0	0.05434966
67	0xbf0c54e5	-0.5481704
68	0x3ecfba9a	0.40572053
69	0xbf169a6b	-0.58829373
70	0xbf15cc15	-0.5851453
71	0xbee0e7cb	-0.43926844
72	0xbd339a3c	-0.04384826
73	0x3ecfc9ca	0.4058364
74	0x3ef76f80	0.48327255
75	0xbf3a9bf0	-0.7289419
76	0x3f2ac0bf	0.6670036
77	0x3ed4b3d8	0.4154346
78	0x3ec674aa	0.38760883
79	0xbf02d2b3	-0.5110275
80	0xbf2e977a	-0.68199885
81	0xbf262aff	-0.64909357
82	0xbd599529	-0.053120766
83	0xbf1c0756	-0.60948694
84	0xbef63f04	-0.48094952
85	0xbd9288ff	-0.07155036
86	0x3ece9b4c	0.40352857
87	0x3d91af60	0.07113528
88	0xbeb0a873	-0.34503517
89	0xbea77737	-0.3270814
90	0x3f1cade2	0.61202824
91	0xbf90ce4f	-1.131296
92	0xbed5008a	-0.41601974
93	0x3eee0dd6	0.4649493
94	0xbf775d03	-0.966263
95	0xbeaabf6a	-0.33349162
96	0xbe9c6d56	-0.30552167
97	0xbf2006f5	-0.62510616
98	0xbc9649a8	-0.018345669
99	0xbe80b973	-0.25141487
100	0xbf133958	-0.57509375
101	0x3e686d71	0.22697999
102	0x3f8f9b6f	1.121931
103	0x3db44b0a	0.08803375
104	0xbecc4f3a	-0.39904195
105	0x3fa0977f	1.2546233
106	0x3f368d41	0.71309286
107	0xbedc8c4a	-0.43075782
108	0x3d74fb39	0.059809897
109	0xbe943aec	-0.28951204
110	0xbf28e0b1	-0.6596785
111	0xbe7f2d84	-0.24919707
112	0xbd9696bd	-0.0735297
113	0x3dbdf4c6	0.092752025
114	0xbd9909b8	-0.07472557
115	0x3ebf792a	0.37397128
116	0xbf11c539	-0.5694156
117	0xbd7cb06c	-0.061691687
118	0xbe8155e7	-0.2526085
119	0xbf17312e	-0.5905942
120	0x3fef6974	1.8704057
121	0xbf34702b	-0.70483655
122	0x3d61d1ce	0.055131726
123	0xbf871ae2	-1.0555079
124	0xbf1e11d5	-0.6174596
125	0x3bb87513	0.0056291907
126	0xbee0d386	-0.4391138
127	0x3ee589f2	0.44831806
128	0xbf1edb3a	-0.62053263
129	0x3f6d303c	0.92651725
130	0x3eec3584	0.4613458
131	0xbee0559f	-0.43815324
132	0x3efa7022	0.48913676
133	0xbf639c4d	-0.8891037
134	0xbcf0fcad	-0.02941736
135	0xbeb0fa80	-0.34566116
136	0xbe85bbe6	-0.26119918
137	0x3ee3330f	0.44374892
138	0x3eb0017f	0.3437614
139	0xbeeb5f4f	-0.45971152
140	0x3f827fd1	1.0195256
141	0xbf08a14a	-0.5337111
142	0x3f8e525c	1.1118884
143	0xbf51bfab	-0.8193309
144	0xbd6c9110	-0.05775553
145	0x3cb15a94	0.021649636
146	0xbf5376a8	-0.8260293
147	0x3dec0e88	0.11526209
148	0x3ee92b83	0.4554101
149	0xbef1af75	-0.47204176
150	0xbf152516	-0.58259714
151	0x3eb6570b	0.35613284
152	0xbed05d39	-0.40696123
153	0xbeb9fcbb	-0.3632563
154	0xbf210148	-0.6289258
155	0xbd0da509	-0.034581218
156	0xbe054275	-0.13013633
157	0xbf004785	-0.5010913
158	0xbf214c12	-0.630067
159	0xbd9eb7aa	-0.07749875
160	0xbf2f991f	-0.6859302
161	0xbe5c7c51	-0.21531798
162	0xbe33dd46	-0.17564878
163	0xbea5fa80	-0.3241768
164	0x3f16392d	0.58680993
165	0xbee077da	-0.4384144
166	0x3cbee057	0.023300333
167	0x3f09005a	0.5351616
168	0x3f0e29f5	0.5553277
169	0x3f1b8eb3	0.60764617
170	0xbe7bcaea	-0.24589124
171	0x3dc9c24b	0.098515116
172	0xbeb4edc1	-0.35337642
173	0x3ec1d848	0.37860322
174	0x3c34929f	0.011021285
175	0xbf099dcb	-0.537564
176	0xbe6634c7	-0.2248107
177	0xbf02025e	-0.5078486
178	0xbee4c05d	-0.44678012
179	0xbdddb742	-0.10825969
180	0xbf29c980	-0.6632309
181	0xbf81b979	-1.0134727
182	0xbe95d776	-0.29265946
183	0xbeeaa5a2	-0.45829493
184	0xbd5afebf	-0.0534656
185	0x3edcd139	0.43128374
186	0xbeb0db4d	-0.34542313
187	0x3f72d4f0	0.94856167
188	0x3f393af7	0.723556
189	0xbe45c98e	-0.19315168
190	0xbee6eba7	-0.45101663
191	0xbd5ac9a6	-0.053414963
192	0xbe5dd1d3	-0.21662073
193	0x3f47d1c0	0.7805443
194	0xbf18b871	-0.59656435
195	0x3e4647ae	0.19363281
196	0xbe40d553	-0.18831377
197	0x3f668feb	0.9006335
198	0x3f27ff5b	0.65624017
199	0xbe8e268f	-0.27763793
200	0xbf22b305	-0.6355441
201	0xbf15e6a7	-0.5855507
202	0xbf2bc210	-0.6709299
203	0x3f026131	0.5092955
204	0x3f403ff0	0.7509756
205	0xbf133b37	-0.5751223
206	0xbe923e8c	-0.28563344
207	0xbf9eb5c2	-1.2399218
208	0xbef89dd3	-0.4855791
209	0x3efe1397	0.4962432
210	0x3f2002d2	0.62504303
211	0x3dbcfde6	0.09228115
212	0x3edef41a	0.4354561
213	0xbe520a75	-0.20511802
214	0xbef8940b	-0.48550448
215	0xbee338d2	-0.44379288
216	0xbece8314	-0.4033438
217	0x3af6debd	0.0018834692
218	0xbe6f1a08	-0.23349774
219	0x3f0cbf97	0.5497984
220	0xbeee6cd3	-0.465674
221	0xbe438553	-0.19093828
222	0xbee3615d	-0.4441022
223	0xbf33c1c6	-0.7021755
224	0xbf07e5a8	-0.530848
225	0x3e024de8	0.12725031
226	0x3f425b33	0.7592041
227	0x3f01c67a	0.50693476
228	0xbef9a754	-0.48760474
229	0xbf096495	-0.536691
230	0x3d979872	0.074021235
231	0x3fd34a6c	1.6507087
232	0x3f853aa0	1.0408516
233	0x3f182786	0.5943531
234	0x4016ca92	2.356114
235	0x3ef7d204	0.48402417
236	0x3f37ef0f	0.7184915
237	0xbec16a75	-0.37776533
238	0xbf09068c	-0.53525615
239	0x3d9ed870	0.07756126
240	0xbed6064a	-0.41801673
241	0xbf1867c7	-0.5953335
242	0x3f0e40d9	0.555677
243	0x3f870431	1.0548154
244	0xbdbe0d7c	-0.09279916
245	0x3e274da6	0.16338214
246	0x3f02e606	0.5113224
247	0xbf137746	-0.5760387
248	0x3f1ef0b7	0.6208605
249	0xbef7bfb6	-0.4838845
250	0xbe96e80e	-0.2947392
251	0x3edb0f0c	0.42784917
252	0x3efdd98a	0.49580032
253	0x3dcdea61	0.1005447
254	0x3efa8ba1	0.48934653
255	0xbecb7740	-0.39739418

head.bias f4 [4]
0	0x3e1fe7e0	0.15615797
1	0x3e19c6c8	0.15017235
2	0x3e2ff183	0.17181973
3	0x3e9a62a3	0.3015338
