LunarLander-project-main/dqn_lunarlander.pth (torch, 279256 bytes, 6 tensors)

backbone.0.weight f4 [256, 8]
-0.0044775126 -0.03715867 0.05474653 -0.11247341 0.007830816 0.039861955 -0.037178814 0.10819199
-0.022280222 -0.07580828 -0.17839783 0.017510073 -0.067107975 -0.27396655 -0.019458579 0.10245389
-0.06281404 -0.12129884 -0.10848956 -0.010664854 0.022642646 -0.08032483 -0.060052894 -0.07086333
0.05133504 -0.15635948 -0.09197745 -0.012127437 -0.05743854 0.15555325 0.029272513 -0.08553983
0.025805565 0.07912313 -0.23098563 0.07725151 0.112111785 0.13875394 -0.054747887 -0.012588583
0.14380836 -0.0015553649 -0.016661478 -0.06484002 0.12047522 0.0023773958 -0.08523977 -0.0076326756
0.036596794 -0.11716603 0.14759316 0.09054566 -0.051477887 0.13051917 0.18504435 0.021824779
0.17082745 0.07923381 -0.042612016 -0.10366587 -0.16666158 0.045780048 0.2106189 -0.07328675
-0.024480693 -0.017347297 0.08030216 0.026547493 -0.11763789 0.034939528 -0.045691065 0.11826897
-0.04610155 -0.11546065 0.13226777 -0.0093072 0.011612031 -0.033917814 -0.093565844 0.12779354
-0.029170932 0.11817875 0.039454944 -0.01267395 0.032519873 0.045456402 -0.0011390678 -0.027964512
0.13269353 0.05103386 0.0352201 0.019135889 0.09391137 0.036516983 -0.07777815 0.053822074
-0.02507778 -0.017473262 0.0010280331 0.099505514 0.043554764 0.09877837 0.14375824 -0.07161635
-0.020871993 0.05080707 0.1255202 -0.006831257 0.036512606 -0.047976673 0.06935409 0.005166058
-0.06181878 -0.011408243 -0.0915366 0.058290217 0.079486676 0.07890946 0.0038670385 0.101731524
0.04680184 0.08366318 0.09103635 0.006545162 -0.13894773 0.1477835 -0.10086005 -0.08754931
0.19495359 0.051411353 0.025861396 -0.06822999 0.09800427 -0.0444514 -0.018568726 -0.13609716
0.12493979 0.04839992 -0.017891152 -0.023912009 0.05456773 -0.07407722 -0.022813499 0.08969006
0.034093235 -0.030474821 -0.0023576957 0.029239947 0.03597715 0.112328105 0.0622316 -0.104686566
-0.07490533 -0.028739957 -0.029780338 0.0255539 -0.114423074 0.07306998 0.11546871 -0.08680004
-0.113584384 0.08238078 -0.027376825 -0.111988924 -0.08021571 0.13069391 0.008537374 -0.00031311947
-0.056036226 -0.051500596 0.07234296 -0.024107443 -0.032356404 0.19366133 -0.0758841 0.0024888974
-0.058796532 0.190191 0.030052762 -0.021163404 -0.09976107 -0.14405632 0.08385648 0.067585796
0.037613645 -0.12058496 0.014094492 -0.0072902422 -0.071911424 0.13265917 0.08269049 0.024192156
-0.076027855 0.027657852 -0.061064187 0.010876325 -0.13051178 -0.0977358 0.008014935 0.046876974
-0.111325674 0.07296291 -0.09150003 0.090944886 -0.058010716 -0.16307902 0.07557935 -0.15252614
0.06768394 -0.067881815 0.07719213 0.0011133509 0.06424893 -0.06121506 0.15572111 0.0503234
-0.030765893 -0.013371725 0.12172741 -0.12560934 0.01364782 -0.13889156 0.10075814 0.100343406
-0.08097221 0.09994083 0.09846523 0.003356787 -0.06855641 0.034807656 0.059817497 -0.10291786
-0.02286164 0.07463019 0.010271893 0.13567594 -0.122759014 0.1023687 -0.02504289 -0.037078697
-0.023840304 -0.05318724 0.17666508 0.013966201 -0.16940413 0.025988176 0.11533013 -0.1031416
0.15059043 0.04913729 -0.018348753 -0.10201378 0.06758971 0.10187409 0.055255048 -0.048152488
00000000: 19b8 92bb b133 18bd e63d 603d 7658 e6bd
00000010: d34c 003c 4a46 233d d048 18bd c393 dd3d
00000020: 0385 b6bc 5f41 9bbd ecad 36be 4971 8f3c
00000030: e86f 89bd 5845 8cbe 9967 9fbc 58d3 d13d
00000040: a6a4 80bd 876b f8bd c62f debd a4bb 2ebc
00000050: 127d b93c 5881 a4bd 06fa 75bd cb20 91bd
00000060: b144 523d b31c 20be ac5e bcbd 28b2 46bc
00000070: ad44 6bbd 5a49 1f3e e9cc ef3c 822f afbd
00000080: 3166 d33c 4f0b a23d 7f87 6cbe 0a36 9e3d
00000090: dd9a e53d 8315 0e3e 523f 60bd 5840 4ebc
000000a0: 8042 133e 63dd cbba a77d 88bc d8ca 84bd
000000b0: b6bb f63d 15ce 1b3b 3092 aebd 861b fabb
000000c0: 85e6 153d bef4 efbd a922 173e 0170 b93d
000000d0: 7ada 52bd d1a6 053e 447c 3d3e e1c9 b23c
000000e0: 64ed 2e3e 5645 a23d f089 2ebd c64e d4bd
000000f0: 55a9 2abe dc83 3b3d 7bac 573e 5d17 96bd
00000100: bc8b c8bc eb1b 8ebc 7575 a43d 217a d93c
00000110: 22ec f0bd c01c 0f3d 8e26 3bbd 0037 f23d
00000120: fbd4 3cbd a276 ecbd 3471 073e 3a7d 18bc
00000130: 6340 3e3c 68ed 0abd 739f bfbd 4fdc 023e
00000140: e1f7 eebc b307 f23d 829b 213d 66a6 4fbc
00000150: 8f33 053d 7e30 3a3d c64c 95ba d515 e5bc
00000160: d0e0 073e e108 513d f442 103d dec2 9c3c
00000170: 9b54 c03d d592 153d 274a 9fbd 8974 5c3d
00000180: eb6f cdbc 1624 8fbc 11bf 863a 8cc9 cb3d
00000190: 7b66 323d 504c ca3d 5c35 133e 98ab 92bd
000001a0: befb aabc 131b 503d 5e88 003e bdd8 dfbb
000001b0: 3e8e 153d 3083 44bd 8409 8e3d 0948 a93b
000001c0: b035 7dbd a4e9 3abc 8a77 bbbd b9c1 6e3d
000001d0: e9c9 a23d 489b a13d 246e 7d3b 9e58 d03d
000001e0: 49b3 3f3d 9a57 ab3d 4471 ba3d cc78 d63b
000001f0: 5048 0ebe 8f54 173e b78f cebd 0d4d b3bd
00000200: eaa1 473e b694 523d 47db d33c 2abc 8bbd
00000210: 76b6 c83d ac12 36bd 711d 98bc 0e5d 0bbe
00000220: 6fe0 ff3d ff3e 463d 7790 92bc 1ee3 c3bc
00000230: 6982 5f3d ccb5 97bd 60e3 babc 6caf b73d
00000240: 59a5 0b3d 55a6 f9bc 9283 1abb 9d88 ef3c
00000250: c75c 133d 470c e63d 90e6 7e3d e965 d6bd
00000260: f767 99bd 0f70 ebbc e5f5 f3bc 6a56 d13c
00000270: a556 eabd b7a5 953d dc7a ec3d 38c4 b1bd
00000280: ee9e e8bd 41b7 a83d 5d45 e0bc 735a e5bd
00000290: 2248 a4bd a0d4 053e 58e0 0b3c 2f2a a4b9
000002a0: 3e86 65bd 4af2 52bd 8c28 943d f97c c5bc
000002b0: 2688 04bd 284f 463e 1f69 9bbd c51c 233b
000002c0: a2d4 70bd 6ec1 423e 3631 f63c e05e adbc
000002d0: 884f ccbd 8083 13be f2bc ab3d 6c6a 8a3d
000002e0: c410 1a3d 3ff5 f6bd 96ec 663c fce2 eebb
000002f0: 4c46 93bd ced7 073e a259 a93d a12e c63c
00000300: 7eb4 9bbd b892 e23c 711e 7abd 9d32 323c
00000310: e1a4 05be b529 c8bd 1351 033c 1202 403d
00000320: b7fe e3bd 946d 953d 5e64 bbbd 5041 ba3d
00000330: a59c 6dbd 30fe 26be 59c9 9a3d d02f 1cbe
00000340: e19d 8a3d 9f05 8bbd e816 9e3d dbed 913a
00000350: f194 833d a5bc 7abd 5b75 1f3e e91f 4e3d
00000360: c108 fcbc 1415 5bbc 384c f93d bc9f 00be
00000370: 1b9b 5f3c 9739 0ebe 495a ce3d d880 cd3d
00000380: c2d4 a5bd c7ad cc3d 23a8 c93d 8afd 5b3b
00000390: 4e67 8cbd 7992 0e3d 3103 753d 99c6 d2bd
000003a0: 5648 bbbc b7d7 983d 714b 283c a2ee 0a3e
000003b0: 1469 fbbd aea6 d13d bf26 cdbc d5df 17bd
000003c0: be4c c3bc ddda 59bd b1e7 343e 7ed2 643c
000003d0: 4778 2dbe 28e5 d43c 3432 ec3d e73b d3bd
000003e0: 6134 1a3e 2f44 493d 2050 96bc 9aec d0bd
000003f0: 796c 8a3d 5da3 d03d 1e53 623d 8b3b 45bd

backbone.0.bias f4 [256]
0.0 0.0 0.0 0.0 0.0 0.0 0.0 0.0
0.0 0.0 0.0 0.0 0.0 0.0 0.0 0.0
0.0 0.0 0.0 0.0 0.0 0.0 0.0 0.0
0.0 0.0 0.0 0.0 0.0 0.0 0.0 0.0
0.0 0.0 0.0 0.0 0.0 0.0 0.0 0.0
0.0 0.0 0.0 0.0 0.0 0.0 0.0 0.0
0.0 0.0 0.0 0.0 0.0 0.0 0.0 0.0
0.0 0.0 0.0 0.0 0.0 0.0 0.0 0.0
0.0 0.0 0.0 0.0 0.0 0.0 0.0 0.0
0.0 0.0 0.0 0.0 0.0 0.0 0.0 0.0
0.0 0.0 0.0 0.0 0.0 0.0 0.0 0.0
0.0 0.0 0.0 0.0 0.0 0.0 0.0 0.0
0.0 0.0 0.0 0.0 0.0 0.0 0.0 0.0
0.0 0.0 0.0 0.0 0.0 0.0 0.0 0.0
0.0 0.0 0.0 0.0 0.0 0.0 0.0 0.0
0.0 0.0 0.0 0.0 0.0 0.0 0.0 0.0
0.0 0.0 0.0 0.0 0.0 0.0 0.0 0.0
0.0 0.0 0.0 0.0 0.0 0.0 0.0 0.0
0.0 0.0 0.0 0.0 0.0 0.0 0.0 0.0
0.0 0.0 0.0 0.0 0.0 0.0 0.0 0.0
0.0 0.0 0.0 0.0 0.0 0.0 0.0 0.0
0.0 0.0 0.0 0.0 0.0 0.0 0.0 0.0
0.0 0.0 0.0 0.0 0.0 0.0 0.0 0.0
0.0 0.0 0.0 0.0 0.0 0.0 0.0 0.0
0.0 0.0 0.0 0.0 0.0 0.0 0.0 0.0
0.0 0.0 0.0 0.0 0.0 0.0 0.0 0.0
0.0 0.0 0.0 0.0 0.0 0.0 0.0 0.0
0.0 0.0 0.0 0.0 0.0 0.0 0.0 0.0
0.0 0.0 0.0 0.0 0.0 0.0 0.0 0.0
0.0 0.0 0.0 0.0 0.0 0.0 0.0 0.0
0.0 0.0 0.0 0.0 0.0 0.0 0.0 0.0
0.0 0.0 0.0 0.0 0.0 0.0 0.0 0.0
00000000: 0000 0000 0000 0000 0000 0000 0000 0000
00000010: 0000 0000 0000 0000 0000 0000 0000 0000
00000020: 0000 0000 0000 0000 0000 0000 0000 0000
00000030: 0000 0000 0000 0000 0000 0000 0000 0000
00000040: 0000 0000 0000 0000 0000 0000 0000 0000
00000050: 0000 0000 0000 0000 0000 0000 0000 0000
00000060: 0000 0000 0000 0000 0000 0000 0000 0000
00000070: 0000 0000 0000 0000 0000 0000 0000 0000
00000080: 0000 0000 0000 0000 0000 0000 0000 0000
00000090: 0000 0000 0000 0000 0000 0000 0000 0000
000000a0: 0000 0000 0000 0000 0000 0000 0000 0000
000000b0: 0000 0000 0000 0000 0000 0000 0000 0000
000000c0: 0000 0000 0000 0000 0000 0000 0000 0000
000000d0: 0000 0000 0000 0000 0000 0000 0000 0000
000000e0: 0000 0000 0000 0000 0000 0000 0000 0000
000000f0: 0000 0000 0000 0000 0000 0000 0000 0000
00000100: 0000 0000 0000 0000 0000 0000 0000 0000
00000110: 0000 0000 0000 0000 0000 0000 0000 0000
00000120: 0000 0000 0000 0000 0000 0000 0000 0000
00000130: 0000 0000 0000 0000 0000 0000 0000 0000
00000140: 0000 0000 0000 0000 0000 0000 0000 0000
00000150: 0000 0000 0000 0000 0000 0000 0000 0000
00000160: 0000 0000 0000 0000 0000 0000 0000 0000
00000170: 0000 0000 0000 0000 0000 0000 0000 0000
00000180: 0000 0000 0000 0000 0000 0000 0000 0000
00000190: 0000 0000 0000 0000 0000 0000 0000 0000
000001a0: 0000 0000 0000 0000 0000 0000 0000 0000
000001b0: 0000 0000 0000 0000 0000 0000 0000 0000
000001c0: 0000 0000 0000 0000 0000 0000 0000 0000
000001d0: 0000 0000 0000 0000 0000 0000 0000 0000
000001e0: 0000 0000 0000 0000 0000 0000 0000 0000
000001f0: 0000 0000 0000 0000 0000 0000 0000 0000
00000200: 0000 0000 0000 0000 0000 0000 0000 0000
00000210: 0000 0000 0000 0000 0000 0000 0000 0000
00000220: 0000 0000 0000 0000 0000 0000 0000 0000
00000230: 0000 0000 0000 0000 0000 0000 0000 0000
00000240: 0000 0000 0000 0000 0000 0000 0000 0000
00000250: 0000 0000 0000 0000 0000 0000 0000 0000
00000260: 0000 0000 0000 0000 0000 0000 0000 0000
00000270: 0000 0000 0000 0000 0000 0000 0000 0000
00000280: 0000 0000 0000 0000 0000 0000 0000 0000
00000290: 0000 0000 0000 0000 0000 0000 0000 0000
000002a0: 0000 0000 0000 0000 0000 0000 0000 0000
000002b0: 0000 0000 0000 0000 0000 0000 0000 0000
000002c0: 0000 0000 0000 0000 0000 0000 0000 0000
000002d0: 0000 0000 0000 0000 0000 0000 0000 0000
000002e0: 0000 0000 0000 0000 0000 0000 0000 0000
000002f0: 0000 0000 0000 0000 0000 0000 0000 0000
00000300: 0000 0000 0000 0000 0000 0000 0000 0000
00000310: 0000 0000 0000 0000 0000 0000 0000 0000
00000320: 0000 0000 0000 0000 0000 0000 0000 0000
00000330: 0000 0000 0000 0000 0000 0000 0000 0000
00000340: 0000 0000 0000 0000 0000 0000 0000 0000
00000350: 0000 0000 0000 0000 0000 0000 0000 0000
00000360: 0000 0000 0000 0000 0000 0000 0000 0000
00000370: 0000 0000 0000 0000 0000 0000 0000 0000
00000380: 0000 0000 0000 0000 0000 0000 0000 0000
00000390: 0000 0000 0000 0000 0000 0000 0000 0000
000003a0: 0000 0000 0000 0000 0000 0000 0000 0000
000003b0: 0000 0000 0000 0000 0000 0000 0000 0000
000003c0: 0000 0000 0000 0000 0000 0000 0000 0000
000003d0: 0000 0000 0000 0000 0000 0000 0000 0000
000003e0: 0000 0000 0000 0000 0000 0000 0000 0000
000003f0: 0000 0000 0000 0000 0000 0000 0000 0000

backbone.2.weight f4 [256, 256]
-0.11033303 -0.077059 0.18882734 -0.16776577 0.09645192 0.06067143 -0.006006189 -0.0554646
-0.14429325 0.044402663 0.081508644 -0.015781688 -0.022462636 -0.0199338 0.08668467 0.1452302
-0.1367539 -0.15115032 -0.01246212 -0.07690108 0.023971532 0.014503723 -0.03471479 -0.015612752
-0.08308049 -0.0346562 0.10365446 -0.026958684 0.016382264 0.026171349 -0.048185907 -0.045557022
0.1133426 0.08339188 -0.036669016 -0.04259142 0.015146794 0.026865087 0.013605964 0.022491418
0.25833598 0.05419581 0.074577294 0.07937125 0.050103873 -0.038410455 0.017261676 -0.028649932
-0.07192711 -0.020582182 -0.052339274 0.0055247024 -0.12379113 -0.16126975 -0.06603931 0.01992088
0.04782426 0.077095054 -0.15580256 -0.07258955 0.0472681 -0.057174087 -0.025781749 0.14516163
0.07457963 -0.17848255 -0.069351844 -0.095019355 0.0022992303 0.000500889 -0.07054584 -0.0376045
0.1400918 -0.053743932 -0.020491274 -0.064079255 0.0066664023 0.015914237 0.09060172 0.117832735
0.04388962 -0.08347566 -0.1720621 -0.012904091 0.17163856 -0.031153856 -0.04236671 -0.097444
0.14624763 -0.07367818 -0.073763914 0.01591831 -0.118567176 -0.04036192 0.089602046 0.08941879
-0.21686931 -0.029592447 -0.016840253 -0.039795153 0.03667841 -0.05973066 0.08493805 -0.19345972
0.09028029 0.02306649 0.037322473 -0.015289864 0.07693743 -0.11503932 0.056451656 -0.021619732
0.16077423 0.019590748 -0.046159413 0.1442354 -0.08933804 -0.014017595 0.14328438 0.0884324
0.09603939 0.036138467 -0.13989042 0.04677281 -0.07726396 -0.12837733 -0.095987864 -0.017840482
-0.022726063 -0.03897025 0.11806577 -0.0005102462 0.029740801 -0.0856134 -0.10923581 -0.046006244
0.1057757 -0.05363175 0.10203177 0.07675153 0.14171222 -0.06706568 0.072951704 -0.010411174
-0.06561711 0.21658427 0.01824139 -0.0022461426 0.06997613 0.08449143 -0.0026224165 -0.11742508
-0.10171344 0.0030167396 0.023266677 -0.02959684 0.036257267 0.052150708 -0.06294005 0.21277155
0.13810216 0.004586794 0.080638416 0.036170844 -0.003736002 0.12080978 -0.12503517 -0.0059542116
0.027984729 -0.010202877 -0.008069599 0.059311625 0.026165646 0.10937609 0.03207898 -0.080023445
-0.1000041 -0.037849583 0.03475665 -0.01321158 -0.072377004 -0.14460978 0.026449544 -0.108403966
-0.058405135 -0.035930384 0.16089551 -0.06810603 0.065331995 0.09226299 -0.002761638 0.037629668
-0.14217596 0.12870273 -0.028207226 0.023503551 -0.124981746 0.10768597 -0.049371127 -0.11327782
-0.11872179 0.14572874 -0.17892623 0.11959274 -0.13774896 -0.0048183585 -0.093927756 0.11269485
-0.058188487 0.009392758 -0.0013271989 -0.12500294 -0.05203123 -0.041925117 0.016192127 0.12581351
-0.07173315 -0.0012836962 0.13362837 0.06381088 -0.06486885 0.07334303 0.051925007 0.121675536
-0.07511879 -0.11132879 0.068817824 -0.009124508 -0.0035995094 -0.02096656 -0.04951124 -0.098607145
0.054396074 -0.032275133 -0.033066545 0.06449787 0.025851248 -0.08676288 -0.021983106 0.02012571
0.084149994 0.12371856 0.020699944 -0.038199067 -0.31790468 -0.059623186 -0.06420894 0.074798755
0.053639214 0.10798235 0.059914168 0.1592874 -0.14396991 0.03408493 0.11125364 0.11305431
00000000: 49f6 e1bd 1cd1 9dbd f45b 413e caca 2bbe
00000010: 9688 c53d 9b82 783d 91cf c4bb d92e 63bd
00000020: 9cc1 13be 91df 353d 01ee a63d 9948 81bc
00000030: 9003 b8bc 354c a3bc bb87 b13d 3ab7 143e
00000040: 3709 0cbe 26c7 1abe eb2d 4cbc 507e 9dbd
00000050: f25f c43c 06a1 6d3c 1831 0ebd a1cc 7fbc
00000060: 1b26 aabd a9f3 0dbd ca48 d43d 75d8 dcbc
00000070: 1934 863c 4c65 d63c 965e 45bd 009a 3abd
00000080: 2a20 e83d 5dc9 aa3d 4032 16bd 5774 2ebd
00000090: 422a 783c 2c14 dc3c 8deb 5e3c ec3f b83c
000000a0: 9d44 843e 6dfc 5d3d fbbb 983d 658d a23d
000000b0: b839 4d3d 4854 1dbd 5c68 8d3c 43b3 eabc
000000c0: 854e 93bd f79b a8bc b561 56bd 9008 b53b
000000d0: 3486 fdbd e623 25be 9e3f 87bd 1d31 a33c
000000e0: 5fe3 433d 03e4 9d3d b58a 1fbe d4a9 94bd
000000f0: 329c 413d 602f 6abd 3f34 d3bc 40a5 143e
00000100: 34bd 983d 21c4 36be 5708 8ebd 8299 c2bd
00000110: afae 163b 174e 033a 567a 90bd 2d07 1abd
00000120: 3a74 0f3e 9922 5cbd 51dd a7bc fc3b 83bd
00000130: d671 da3b 935e 823c 658d b93d 4a52 f13d
00000140: 9ac5 333d 49f5 aabd 0c31 30be ae6b 53bc
00000150: 05c2 2f3e 5f36 ffbc b788 2dbd b890 c7bd
00000160: f0c1 153e 96e4 96bd 8911 97bd 1e67 823c
00000170: 59d3 f2bd 8a52 25bd 4781 b73d 3321 b73d
00000180: fd12 5ebe dc6b f2bc 92f4 89bc 3e00 23bd
00000190: 1a3c 163d 23a8 74bd 00f4 ad3d 4e1a 46be
000001a0: dfe4 b83d f0f5 bc3c 73df 183d 5682 7abc
000001b0: 5f91 9d3d bc99 ebbd da39 673d dd1b b1bc
000001c0: 00a2 243e c77c a03c a711 3dbd 72b2 133e
000001d0: ddf6 b6bd 0eaa 65bc 24b9 123e 0c1c b53d
000001e0: 4db0 c43d ee05 143d 6f3f 0fbe d994 3f3d
000001f0: 913c 9ebd 5975 03be 4995 c4bd 3426 92bc
00000200: 022c babc 459f 1fbd 77cc f13d 0bc2 05ba
00000210: fba2 f33c 1456 afbd 06b7 dfbd 0b71 3cbd
00000220: eea0 d83d f7ac 5bbd 08f6 d03d e82f 9d3d
00000230: 021d 113e bb59 89bd b467 953d a193 2abc
00000240: 4362 86bd 44c8 5d3e f86e 953c 0534 13bb
00000250: a54f 8f3d d809 ad3d d9dc 2bbb 8f7c f0bd
00000260: 234f d0bd 7eb4 453b c299 be3c 1275 f2bc
00000270: 8082 143d fb9b 553d b7e6 80bd c9e0 593e
00000280: a76a 0d3e d14c 963b c125 a53d e127 143d
00000290: b6d7 74bb 1e6b f73d 3809 00be 8c1b c3bb
000002a0: 3b40 e53c f829 27bc 5a36 04bc bff0 723d
000002b0: 5659 d63c 9200 e03d 4065 033d 55e3 a3bd
000002c0: f3ce ccbd 2a08 1bbd fd5c 0e3d 6275 58bc
000002d0: 653a 94bd 9614 14be b7ac d83c e602 debd
000002e0: 393a 6fbd bd2b 13bd cbc1 243e 2d7b 8bbd
000002f0: c8cc 853d 61f4 bc3d 99fc 34bb 9121 1a3d
00000300: 9396 11be a6ca 033e d712 e7bc 858a c03c
00000310: 6ef6 ffbd 768a dc3d 6139 4abd 34fe e7bd
00000320: 6924 f3bd ea39 153e 7038 37be 0aed f43d
00000330: 100e 0dbe 52e3 9dbb 325d c0bd 8fcc e63d
00000340: 0d57 6ebd 15e4 193c 68f5 adba c500 00be
00000350: b31e 55bd acb9 2bbd 5aa5 843c 42d5 003e
00000360: d4e8 92bd b241 a8ba e0d5 083e 47af 823d
00000370: f6d9 84bd df34 963d 51af 543d 0631 f93d
00000380: e1d7 99bd 5900 e4bd 5cf0 8c3d f67e 15bc
00000390: bfe5 6bbb 10c2 abbc 4ccc 4abd 8bf2 c9bd
000003a0: 6bce 5e3d ee32 04bd c970 07bd 7617 843d
000003b0: ffc5 d33c bdb0 b1bd ea15 b4bc acde a43c
000003c0: d556 ac3d 2860 fd3d ee92 a93c a076 1cbd
000003d0: 67c4 a2be 7137 74bd fa7f 83bd 1730 993d
000003e0: cbb4 5b3d da25 dd3d 8f68 753d 3c1c 233e
000003f0: d96c 13be a49c 0b3d f3d8 e33d 0589 e73d

backbone.2.bias f4 [256]
0.0 0.0 0.0 0.0 0.0 0.0 0.0 0.0
0.0 0.0 0.0 0.0 0.0 0.0 0.0 0.0
0.0 0.0 0.0 0.0 0.0 0.0 0.0 0.0
0.0 0.0 0.0 0.0 0.0 0.0 0.0 0.0
0.0 0.0 0.0 0.0 0.0 0.0 0.0 0.0
0.0 0.0 0.0 0.0 0.0 0.0 0.0 0.0
0.0 0.0 0.0 0.0 0.0 0.0 0.0 0.0
0.0 0.0 0.0 0.0 0.0 0.0 0.0 0.0
0.0 0.0 0.0 0.0 0.0 0.0 0.0 0.0
0.0 0.0 0.0 0.0 0.0 0.0 0.0 0.0
0.0 0.0 0.0 0.0 0.0 0.0 0.0 0.0
0.0 0.0 0.0 0.0 0.0 0.0 0.0 0.0
0.0 0.0 0.0 0.0 0.0 0.0 0.0 0.0
0.0 0.0 0.0 0.0 0.0 0.0 0.0 0.0
0.0 0.0 0.0 0.0 0.0 0.0 0.0 0.0
0.0 0.0 0.0 0.0 0.0 0.0 0.0 0.0
0.0 0.0 0.0 0.0 0.0 0.0 0.0 0.0
0.0 0.0 0.0 0.0 0.0 0.0 0.0 0.0
0.0 0.0 0.0 0.0 0.0 0.0 0.0 0.0
0.0 0.0 0.0 0.0 0.0 0.0 0.0 0.0
0.0 0.0 0.0 0.0 0.0 0.0 0.0 0.0
0.0 0.0 0.0 0.0 0.0 0.0 0.0 0.0
0.0 0.0 0.0 0.0 0.0 0.0 0.0 0.0
0.0 0.0 0.0 0.0 0.0 0.0 0.0 0.0
0.0 0.0 0.0 0.0 0.0 0.0 0.0 0.0
0.0 0.0 0.0 0.0 0.0 0.0 0.0 0.0
0.0 0.0 0.0 0.0 0.0 0.0 0.0 0.0
0.0 0.0 0.0 0.0 0.0 0.0 0.0 0.0
0.0 0.0 0.0 0.0 0.0 0.0 0.0 0.0
0.0 0.0 0.0 0.0 0.0 0.0 0.0 0.0
0.0 0.0 0.0 0.0 0.0 0.0 0.0 0.0
0.0 0.0 0.0 0.0 0.0 0.0 0.0 0.0
00000000: 0000 0000 0000 0000 0000 0000 0000 0000
00000010: 0000 0000 0000 0000 0000 0000 0000 0000
00000020: 0000 0000 0000 0000 0000 0000 0000 0000
00000030: 0000 0000 0000 0000 0000 0000 0000 0000
00000040: 0000 0000 0000 0000 0000 0000 0000 0000
00000050: 0000 0000 0000 0000 0000 0000 0000 0000
00000060: 0000 0000 0000 0000 0000 0000 0000 0000
00000070: 0000 0000 0000 0000 0000 0000 0000 0000
00000080: 0000 0000 0000 0000 0000 0000 0000 0000
00000090: 0000 0000 0000 0000 0000 0000 0000 0000
000000a0: 0000 0000 0000 0000 0000 0000 0000 0000
000000b0: 0000 0000 0000 0000 0000 0000 0000 0000
000000c0: 0000 0000 0000 0000 0000 0000 0000 0000
000000d0: 0000 0000 0000 0000 0000 0000 0000 0000
000000e0: 0000 0000 0000 0000 0000 0000 0000 0000
000000f0: 0000 0000 0000 0000 0000 0000 0000 0000
00000100: 0000 0000 0000 0000 0000 0000 0000 0000
00000110: 0000 0000 0000 0000 0000 0000 0000 0000
00000120: 0000 0000 0000 0000 0000 0000 0000 0000
00000130: 0000 0000 0000 0000 0000 0000 0000 0000
00000140: 0000 0000 0000 0000 0000 0000 0000 0000
00000150: 0000 0000 0000 0000 0000 0000 0000 0000
00000160: 0000 0000 0000 0000 0000 0000 0000 0000
00000170: 0000 0000 0000 0000 0000 0000 0000 0000
00000180: 0000 0000 0000 0000 0000 0000 0000 0000
00000190: 0000 0000 0000 0000 0000 0000 0000 0000
000001a0: 0000 0000 0000 0000 0000 0000 0000 0000
000001b0: 0000 0000 0000 0000 0000 0000 0000 0000
000001c0: 0000 0000 0000 0000 0000 0000 0000 0000
000001d0: 0000 0000 0000 0000 0000 0000 0000 0000
000001e0: 0000 0000 0000 0000 0000 0000 0000 0000
000001f0: 0000 0000 0000 0000 0000 0000 0000 0000
00000200: 0000 0000 0000 0000 0000 0000 0000 0000
00000210: 0000 0000 0000 0000 0000 0000 0000 0000
00000220: 0000 0000 0000 0000 0000 0000 0000 0000
00000230: 0000 0000 0000 0000 0000 0000 0000 0000
00000240: 0000 0000 0000 0000 0000 0000 0000 0000
00000250: 0000 0000 0000 0000 0000 0000 0000 0000
00000260: 0000 0000 0000 0000 0000 0000 0000 0000
00000270: 0000 0000 0000 0000 0000 0000 0000 0000
00000280: 0000 0000 0000 0000 0000 0000 0000 0000
00000290: 0000 0000 0000 0000 0000 0000 0000 0000
000002a0: 0000 0000 0000 0000 0000 0000 0000 0000
000002b0: 0000 0000 0000 0000 0000 0000 0000 0000
000002c0: 0000 0000 0000 0000 0000 0000 0000 0000
000002d0: 0000 0000 0000 0000 0000 0000 0000 0000
000002e0: 0000 0000 0000 0000 0000 0000 0000 0000
000002f0: 0000 0000 0000 0000 0000 0000 0000 0000
00000300: 0000 0000 0000 0000 0000 0000 0000 0000
00000310: 0000 0000 0000 0000 0000 0000 0000 0000
00000320: 0000 0000 0000 0000 0000 0000 0000 0000
00000330: 0000 0000 0000 0000 0000 0000 0000 0000
00000340: 0000 0000 0000 0000 0000 0000 0000 0000
00000350: 0000 0000 0000 0000 0000 0000 0000 0000
00000360: 0000 0000 0000 0000 0000 0000 0000 0000
00000370: 0000 0000 0000 0000 0000 0000 0000 0000
00000380: 0000 0000 0000 0000 0000 0000 0000 0000
00000390: 0000 0000 0000 0000 0000 0000 0000 0000
000003a0: 0000 0000 0000 0000 0000 0000 0000 0000
000003b0: 0000 0000 0000 0000 0000 0000 0000 0000
000003c0: 0000 0000 0000 0000 0000 0000 0000 0000
000003d0: 0000 0000 0000 0000 0000 0000 0000 0000
000003e0: 0000 0000 0000 0000 0000 0000 0000 0000
000003f0: 0000 0000 0000 0000 0000 0000 0000 0000

head.weight f4 [4, 256]
-0.008534063 -0.07212356 -0.05705012 0.035780225 -0.114871964 0.08635481 -0.008378151 0.08896264
-0.05116591 0.17241375 -0.14546372 -0.0014622645 0.033435505 0.041303515 0.0011684954 0.060564872
0.10615983 -0.12545067 -0.08947137 -0.13019407 0.08392288 0.13223702 -0.15882291 -0.026137233
-0.044341348 -0.11195187 -0.1846984 -0.00037141415 0.057102576 -0.020127961 -0.075563595 -0.01515296
-0.00503367 -0.11086749 -0.10791988 -0.073384896 -0.032524843 0.082527615 0.1124065 0.006057891
-0.11506027 0.16785462 -0.010192205 -0.08671473 -0.14906181 -0.035100713 0.15124857 -0.012065994
0.030516446 -0.022303203 -0.007037409 -0.10548427 0.023051605 -0.010246348 -0.11794909 0.0040989993
-0.10345705 -0.04703247 0.04807178 -0.05591804 -0.03215043 0.017359886 0.03851127 0.057019908
0.10300922 0.04776055 0.06360376 -0.009871381 0.104905926 0.055475377 -0.035186637 0.09519397
-0.009819001 0.21458848 -0.10370004 -0.12448667 0.0481016 0.105021544 -0.02908082 0.023949556
-0.09518188 -0.054351404 -0.053120766 0.031957693 0.0711851 -0.054241 0.034241844 0.08412342
0.1112157 -0.03047445 -0.0093965605 0.04233051 -0.10384982 0.12584962 0.08068375 0.085292146
-0.042534694 -0.071343005 0.023149095 -0.16194786 0.061126396 0.2299202 -0.15770495 -0.078400634
0.021465717 -0.051633712 0.038290836 0.024540365 0.06929785 0.13416766 -0.06134838 -0.07812372
-0.043498553 0.10834591 -0.07472557 0.00440545 -0.16778761 -0.015144948 -0.19091018 -0.16503932
0.14135143 -0.19453329 0.09876809 -0.10399469 -0.1067643 -0.004249309 0.054850705 0.023491375
-0.19640419 -0.085790366 0.09810066 -0.0103268875 0.08938946 0.022742229 -0.039289404 -0.17527343
-0.039778613 0.024999063 0.04352126 -0.19616397 0.11121347 -0.1255271 0.036797583 -0.15683474
-0.08925016 0.035740882 -0.16751726 0.14398682 0.094028436 -0.008005353 0.019516582 0.007676384
0.05535092 -0.13637322 0.0017445537 -0.025674338 -0.011049205 -0.11085327 -0.08867482 -0.1006397
0.047502648 -0.066677436 -0.016497847 -0.00058714376 0.114090145 0.08608473 0.009610459 -0.062495284
0.14287202 0.018143661 0.07017325 0.10861446 -0.05849198 -0.060247544 0.05946804 -0.02199672
-0.11340281 -0.08225587 -0.06948422 -0.026341734 -0.13089761 0.08815094 -0.078901045 0.003608535
-0.0534656 0.026890848 -0.017512595 -0.043775182 0.030416574 -0.22441141 0.02196511 0.029424742
0.09589356 -0.05334817 -0.109112434 0.040285997 -0.028036322 0.06422412 0.032948498 0.028224315
0.031014366 -0.091393165 0.01947626 0.1275249 0.06396944 -0.050517995 -0.19294964 0.004455911
-0.11699079 0.019984819 0.023335753 0.10485457 -0.0257828 -0.036747225 0.01709063 -0.19205947
-0.08520648 -0.006066641 -0.08667104 0.14782494 -0.06308026 -0.041981366 0.040192913 -0.12814662
-0.06745916 0.13714999 0.03672092 0.010421936 -0.2169772 0.08357379 0.020446895 0.03318817
0.046023067 -0.05549034 0.033454224 0.033499308 -0.024784924 0.023694694 -0.1033411 0.084696345
-0.11018716 -0.013866099 0.0140827065 0.10331948 -0.10027523 -0.036707792 -0.05749604 -0.13987263
-0.057544746 -0.10970422 0.0028239577 0.14738749 0.119013585 0.094379984 0.010476291 -0.06246602
00000000: 74d2 0bbc 84b5 93bd 63ad 69bd 498e 123d
00000010: fe41 ebbd cada b03d 8344 09bc 0b32 b63d
00000020: 5893 51bd 3b8d 303e 71f4 14be 74a9 bfba
00000030: abf3 083d e02d 293d 3328 993a df12 783d
00000040: 536a d93d 2476 00be c43c b7bd 9851 05be
00000050: c2df ab3d 2469 073e 79a2 22be c01d d6bc
00000060: 469f 35bd 0647 e5bd 9421 3dbe 5dba c2b9
00000070: 64e4 693d 65e3 a4bc 16c1 9abd 1f44 78bc
00000080: 7cf1 a4bb 7f0e e3bd 1905 ddbd d24a 96bd
00000090: c538 05bd 3d04 a93d 6135 e63d 4681 c63b
000000a0: b8a4 ebbd 15e2 2b3e 35fd 26bc 7e97 b1bd
000000b0: a9a3 18be c4c5 0fbd e8e0 1a3e 72b0 45bc
000000c0: a0fd f93c 35b5 b6bc 119a e6bb 2308 d8bd
000000d0: b8d6 bc3c 4ce0 27bc 4b8f f1bd e650 863b
000000e0: 4ae1 d3bd 1fa5 40bd eae6 443d 510a 65bd
000000f0: 2bb0 03bd 5236 8e3c febd 1d3d b58d 693d
00000100: 7ff6 d23d 91a0 433d b042 823d 93bb 21bc
00000110: ebd8 d63d 263a 633d dd1f 10bd 0ef5 c23d
00000120: e0df 20bc 15bd 5b3e b060 d4bd def2 febd
00000130: 2f06 453d 8915 d73d e63a eebc dc31 c43c
00000140: b8ee c2bd 949f 5ebd 2995 59bd 12e6 023d
00000150: 7ec9 913d d02b 5ebd 2d41 0c3d e648 ac3d
00000160: 0fc5 e33d 8ea5 f9bc 08f4 19bc c262 2d3d
00000170: 37af d4bd b9de 003e 863d a53d a6ad ae3d
00000180: dc38 2ebd 481c 92bd 2ca3 bd3c a9d5 25be
00000190: ac5f 7a3d 3370 6b3e 687d 21be 8390 a0bd
000001a0: dfd8 af3c df7d 53bd dad6 1c3d e008 c93c
000001b0: 08ec 8d3d 3f63 093e 7048 7bbd 54ff 9fbd
000001c0: 8a2b 32bd 76e4 dd3d b809 99bd 985b 903b
000001d0: 84d0 2bbe 8422 78bc f57d 43be 1100 29be
000001e0: 6ebe 103e bc33 47be ed46 ca3d 2bfb d4bd
000001f0: 3ea7 dabd ca3d 8bbb 22ab 603d fc70 c03c
00000200: 2e1e 49be dcb2 afbd 00e9 c83d 1b32 29bc
00000210: d211 b73d e94d ba3c eded 20bd e17a 33be
00000220: e6ee 22bd d6ca cc3c 5943 323d 35df 48be
00000230: e3c3 e33d 2d8a 00be 10b9 163d 4999 20be
00000240: cac8 b6bd 0865 123d a589 2bbe 4871 133e
00000250: fb91 c03d e228 03bc 3de1 9f3c 2d8a fb3b
00000260: a5b7 623d 6ca5 0bbe 82a9 e43a fd52 d2bc
00000270: ba07 35bc 0a07 e3bd 259b b5bd 301c cebd
00000280: 2392 423d 2e8e 88bd 7e26 87bc 8dea 19ba
00000290: 18a8 e93d 314d b03d 3075 1d3c 0efb 7fbd
000002a0: 0b4d 123e 04a2 943c feb6 8f3d 4271 de3d
000002b0: 4995 6fbd 21c6 76bd c294 733d 7732 b4bc
000002c0: bc3f e8bd c475 a8bd be4d 8ebd 9fca d7bc
000002d0: 060a 06be 7b88 b43d df96 a1bd 2c7d 6c3b
000002e0: bffe 5abd 324a dc3c 9376 8fbc 9b4d 33bd
000002f0: 2e2c f93c 1bcc 65be 2df0 b33c 280c f13c
00000300: d863 c43d 9c83 5abd 5776 dfbd ee02 253d
00000310: 6eac e5bc ef87 833d 01f5 063d ae36 e73c
00000320: d711 fe3c 572c bbbd ad8c 9f3c e395 023e
00000330: 6902 833d f5eb 4ebd 9794 45be e402 923b
00000340: de98 efbd 34b7 a33c 9f2a bf3c febd d63d
00000350: 7336 d3bc 4284 16bd a601 8c3c 3dab 44be
00000360: bc80 aebd acca c6bb 9680 b1bd 6c5f 173e
00000370: 3930 81bd a7f4 2bbd 53a1 243d de38 03be
00000380: 0728 8abd 0c71 0c3e ad68 163d c5c0 2a3c
00000390: 452f 5ebe bc28 ab3d 3f80 a73c 52f0 073d
000003a0: af82 3c3d d749 63bd 4c07 093d 9236 093d
000003b0: c109 cbbc 601b c23c 80a4 d3bd 4775 ad3d
000003c0: cea9 e1bd a22e 63bc 27bb 663c 2a99 d33d
000003d0: 1a5d cdbd e95a 16bd f880 6bbd c53a 0fbe
000003e0: 0ab4 6bbd 9bac e0bd 2612 393b bfec 163e
000003f0: 65bd f33d 4b4a c13d c0a4 2b3c 5fdc 7fbd

head.bias f4 [4]
0.0 0.0 0.0 0.0
00000000: 0000 0000 0000 0000 0000 0000 0000 0000
